project/best_grusb_model_K8.pth (torch, 21733 bytes, 5 tensors)

gru.weight_ih_l0 f4 [96, 14]
-0.3147821 -0.2863254 -0.20372114 0.093939364 -0.021989353 -0.18302147 0.20612693 0.16788436
-0.24038568 -0.040650837 -0.08315575 -0.17073965 -0.13194798 -0.08688064 0.5129257 0.27646947
-0.106385894 -0.23928738 0.005178752 0.29907936 -0.118054375 -0.17145075 0.30810517 -0.1343156
0.115793176 0.22139847 -0.045056272 -0.41209206 -0.13344088 0.22540602 0.118114725 0.35320055
0.032464772 -0.09554059 -0.055227835 -0.07926404 0.14029999 -0.20104931 0.1570582 0.40333173
0.004899366 -0.39736676 0.097052544 0.50964594 0.25279406 0.51699954 0.32291695 -0.04431884
-0.03998584 0.07249128 0.035756033 -0.11754293 0.18698551 0.17318329 -0.15414691 -0.29839903
0.16666147 -0.14233963 -0.06714747 0.11652669 -0.45583308 0.23212633 -0.085304864 0.1457019
-0.1265269 0.25023746 0.14466672 -0.38900787 -0.12079677 0.20804694 -0.29577246 0.13024962
0.041429378 0.16657153 0.41122785 -0.1619565 0.09362985 -0.038109455 0.14096802 -0.2043387
-0.006773535 0.021363487 0.09057026 -0.22656845 -0.12557718 -0.24222699 0.09877883 -0.37509266
-0.20728067 0.29031476 -0.20486265 -0.08132344 -0.11351335 -0.1177436 -0.15582605 -0.12087243
0.027612295 -0.03693479 -0.16348265 0.043842115 -0.13974372 0.22650807 -0.41405982 0.07082588
-0.19939554 0.06388938 -0.17416832 -0.096558265 -0.056335103 -0.056301314 0.0014238232 -0.105110675
-0.3728795 -0.14422797 -0.007081991 0.28187305 0.09375274 -0.28254703 0.14838974 -0.019684294
0.12547338 -0.2158182 -0.03137779 0.1340906 -0.015272983 -0.1443584 0.1292185 -0.1092866
-0.19230047 -0.4004544 0.008510707 0.5462679 -0.2667443 0.057203688 -0.16625597 -0.11967182
-0.16121142 0.02493217 0.18246035 -0.042504642 -0.17770904 0.29620972 -0.22754022 -0.23475155
-0.11715275 0.1961967 -0.41008672 0.12882952 -0.04106653 -0.24992003 0.06310996 0.1805035
0.13326441 -0.17885178 0.044715155 0.38222307 0.077898234 0.29014835 0.093827486 0.039299652
0.06420697 -0.11017793 0.023147328 -0.13667513 -0.06028984 0.51383567 0.07370094 -0.051191166
0.07449682 -0.27036312 -0.088813536 0.08264782 -0.30109835 0.13811873 -0.12776014 0.060330477
0.07172552 0.12922038 -0.19090256 -0.07292678 0.032784913 0.16323368 -0.36891896 0.062058605
0.0020065776 0.25608796 0.20101923 -0.06341514 -0.18284877 -0.089249805 -0.095308684 0.03261652
-0.08119194 0.005739644 -0.006435989 0.069245294 0.177897 -0.2133308 -0.12774456 -0.4313832
-0.34419382 0.3417968 -0.34531045 -0.07302696 -0.1709649 0.048022527 -0.1718128 -0.3530285
-0.06272436 0.03158068 -0.059856057 0.08299487 0.15238819 0.03462528 0.1795331 0.26954398
-0.017040629 -0.007786643 -0.11086273 -0.13364896 0.118936144 0.24165788 -0.095771514 -0.27586192
-0.13742235 0.26597923 0.31929776 0.13183345 0.6071445 -0.2031805 0.24839845 -0.12464028
0.12959892 -0.15968692 0.11423567 0.45937544 -0.052529797 -0.0147114415 -0.056962445 -0.119707696
0.056184765 -0.20698686 0.11469417 -0.10403642 -0.17542337 -0.07950393 0.12675066 -0.030017145
-0.112051666 -0.28882894 0.0133577995 -0.1941021 -0.36361295 -0.043581665 0.03581152 0.33415702
00000000: 1f2b a1be 3e99 92be 469c 50be 4863 c03d
00000010: 0423 b4bc fb69 3bbe f012 533e e1e9 2b3e
00000020: aa27 76be 7e81 26bd 904d aabd 60d6 2ebe
00000030: 5f1d 07be 7aee b1bd 194f 033f 688d 8d3e
00000040: d9e0 d9bd c007 75be 85b2 a93b ee20 993e
00000050: 7ec6 f1bd c990 2fbe f6bf 9d3e 078a 09be
00000060: f924 ed3d 48b6 623e ed8c 38bd bbfd d2be
00000070: baa4 08be d6d0 663e 22e6 f13d b4d6 b43e
00000080: c8f9 043d c9aa c3bd 9536 62bd 2f55 a2bd
00000090: cdaa 0f3e dfdf 4dbe ddd3 203e 7f81 ce3e
000000a0: dc8a a03b a873 cbbe 7cc3 c63d 2878 023f
000000b0: 396e 813e 155a 043f 5f55 a53e ac87 35bd
000000c0: 31c8 23bd 4f76 943d eb74 123d 59ba f0bd
000000d0: 2179 3f3e f656 313e b0d8 1dbe c2c7 98be
000000e0: 4ea9 2a3e 7bc1 11be 9d84 89bd 8ca5 ee3d
000000f0: f462 e9be 86b2 6d3e 51b4 aebd e132 153e
00000100: 4590 01be 201f 803e 8323 143e 0a2c c7be
00000110: 4c64 f7bd 420a 553e 7d6f 97be 2860 053e
00000120: dab1 293d ba91 2a3e 758c d23e edd7 25be
00000130: 02c1 bf3d a918 1cbd ec59 103e 2a3e 51be
00000140: 88f4 ddbb 7b02 af3c e77c b93d 8f01 68be
00000150: 4e97 00be 5a0a 78be 8e4c ca3d 250c c0be
00000160: 6241 54be 23a4 943e 84c7 51be e78c a6bd
00000170: b079 e8bd 8e23 f1bd dd90 1fbe f78b f7bd
00000180: 2e33 e23c ef48 17bd ff67 27be ca93 333d
00000190: fa18 0fbe bbf1 673e a6ff d3be 290d 913d
000001a0: 582e 4cbe 6fd8 823d 2e59 32be 57c0 c5bd
000001b0: a3bf 66bd 359c 66bd 949f ba3a 4444 d7bd
000001c0: 10ea bebe 7fb0 13be 0c10 e8bb aa51 903e
000001d0: 7001 c03d 01aa 90be 7bf3 173e f540 a1bc
000001e0: 187c 003e 72ff 5cbe ff85 00bd 0c4f 093e
000001f0: 893b 7abc b0d2 13be db51 043e a7d1 dfbd
00000200: 6aea 44be 5c08 cdbe 7e70 0b3c 37d8 0b3f
00000210: b592 88be 6a4e 6a3d 013f 2abe 8016 f5bd
00000220: 9b14 25be 8d3e cc3c e3d6 3a3e 5919 2ebd
00000230: 5cf9 35be cda8 973e 4e00 69be b662 70be
00000240: c8ed efbd cae7 483e e3f6 d1be e3eb 033e
00000250: 6135 28bd 09eb 7fbe cb3f 813d e9d5 383e
00000260: 7776 083e ec24 37be 3d27 373d beb2 c33e
00000270: 1c89 9f3d 538e 943e a028 c03d acf8 203d
00000280: f27e 833d f7a4 e1bd 779f bd3c 91f4 0bbe
00000290: 7bf2 76bd bc8a 033f 85f0 963d d4ad 51bd
000002a0: ca91 983d 096d 8abe dfe3 b5bd 4343 a93d
000002b0: 9029 9abe ff6e 0d3e 8ed3 02be 171d 773d
000002c0: d4e4 923d 5952 043e f67b 43be a35a 95bd
000002d0: 7949 063d bb26 273e f2e2 bcbe 2a31 7e3d
000002e0: c980 033b f61d 833e fcd7 4d3e ccdf 81bd
000002f0: b53c 3bbe 9ac8 b6bd 3331 c3bd e698 053d
00000300: f647 a6bd a013 bc3b fde4 d2bb 7ad0 8d3d
00000310: a22a 363e 6473 5abe 78cf 02be 42de dcbe
00000320: 2c3a b0be fdff ae3e 88cc b0be 298f 95bd
00000330: 6c11 2fbe 45b3 443d b2ef 2fbe 27c0 b4be
00000340: a175 80bd be5a 013d a02b 75bd 37f9 a93d
00000350: a60b 1c3e 3dd3 0d3d 86d7 373e ab01 8a3e
00000360: ca98 8bbc 1927 ffbb 000c e3bd 46db 08be
00000370: cb94 f33d 2a75 773e db23 c4bd c63d 8dbe
00000380: 72b8 0cbe 6e2e 883e ff7a a33e 59ff 063e
00000390: d26d 1b3f 8d0e 50be 2a5c 7e3e 6743 ffbd
000003a0: 94b5 043e f884 23be 64f4 e93d 4233 eb3e
000003b0: 7c29 57bd 4208 71bc 7451 69bd 4f29 f5bd
000003c0: ff21 663d 5df4 53be c7e4 ea3d 0c11 d5bd
000003d0: 2fa2 33be f5d2 a2bd edca 013e 84e6 f5bc
000003e0: 587b e5bd 63e1 93be acda 5a3c b3c2 46be
000003f0: 7a2b babe b082 32bd 1aaf 123d a116 ab3e

gru.weight_hh_l0 f4 [96, 32]
-0.14153849 0.18970144 -0.067439936 -0.09672138 0.02188411 0.08681053 -0.16210118 -0.0011343828
-0.1510731 -0.0118764695 -0.06064257 -0.12874876 0.07942679 0.054788925 -0.16869305 -0.13270815
-0.19947144 0.018363506 0.17255731 0.10479353 0.020042652 0.007979756 0.06972381 -0.13574708
-0.0856622 0.07040842 0.15131444 0.13857345 -0.17904052 -0.20975009 0.1891066 0.14648429
-0.11013175 -0.20182909 0.23632213 0.012049164 -0.14252332 -0.08715162 0.3371556 -0.17252351
0.43976614 0.14944623 -0.004893838 -0.0047128065 0.15534411 0.33039278 0.2633338 -0.3512168
-0.3988611 0.08171566 -0.42222354 -0.23392217 -0.15632115 -0.49723634 0.05721562 0.364743
-0.17036954 -0.52487296 0.27601632 0.108691335 -0.3724284 0.119737886 -0.38055798 -0.3949622
0.16823632 -0.2713701 0.05098827 0.19921587 0.05036798 0.07228672 0.24663593 -0.051176026
0.07440627 0.18502337 -0.030007433 -0.005673415 -0.024021374 -0.018701842 -0.050764985 -0.24231848
-0.30260634 -0.049481902 -0.044603236 -0.053341586 -0.14248776 -0.08433665 -0.16042219 0.07798396
-0.12258459 -0.023281882 0.19895673 0.10480409 -0.291812 -0.019551901 -0.15893117 -0.25658172
-0.037542436 -0.15255935 0.062839575 -0.17785147 -0.13552555 0.07784191 0.13331354 -0.106754
0.2536214 -0.1740845 -0.12862225 -0.08712331 0.015662156 0.099566996 -0.03582415 -0.13864675
0.10798233 -0.10544355 -0.29379526 0.06042684 -0.12903804 -0.012744967 -0.1192983 0.18017592
-0.015926711 0.014922627 0.025754843 -0.14297047 0.026814152 0.018923115 0.16110973 -0.18510619
0.14633246 -0.020366134 0.047832426 -0.082120895 -0.05765302 0.087722875 -0.021065451 0.017178288
-0.011822576 0.22507617 0.16536613 -0.10659918 -0.23356564 0.02623795 -0.032995068 0.009630894
-0.0382335 -0.14004616 0.08604487 0.037394043 -0.05661077 0.0052401447 0.12329941 -0.036343828
-0.05203966 0.22367026 -0.22519645 -0.14672904 -0.072361924 0.06195185 -0.22696435 -0.054076318
-0.024107149 -0.01734917 0.044041187 -0.10241294 -0.15652372 0.00035465346 -0.18963957 -0.0410932
0.18860316 -0.025003314 -0.09241932 -0.056316614 0.17079102 0.18743984 0.23430869 -0.049356926
0.053545035 0.18531711 -0.08661999 0.10589282 0.10812091 -0.18442884 0.008171454 0.069099315
0.0037322638 -0.12773564 0.053707115 0.09232064 -0.042200558 -0.16910297 0.114841774 0.023674328
0.08022074 -0.41966915 0.27024707 0.050931588 0.021784106 0.15435185 0.30200207 0.024508592
0.118735045 0.39239854 0.21745749 -0.08099621 -0.41799027 0.14178236 0.10413333 -0.12943354
-0.22151828 -0.13558613 0.07020901 -0.17772049 0.055590354 -0.116870955 0.032207966 0.26645744
0.123856194 -0.022180833 -0.1882728 0.11674528 -0.077356376 0.19434217 -0.25848988 -0.2869601
-0.09700462 -0.23379023 0.052072715 -0.02938706 0.1073542 -0.14603299 0.063099645 0.059471674
0.01422488 0.09289767 -0.07395043 -0.13510177 -0.24770996 -0.033736464 0.11049792 -0.055160355
-0.20704064 0.107787535 -0.13173607 0.016628988 0.21372809 0.10164874 0.19056593 0.22840013
-0.015051444 -0.03898352 -0.06319846 -0.15631714 -0.10574061 -0.12204409 -0.17779492 -0.10543861
00000000: 77ef 10be 1841 423e f31d 8abd dc15 c6bd
00000010: 4e46 b33c b8c9 b13d dafd 25be 92af 94ba
00000020: e8b2 1abe 8695 42bc 5864 78bd b7d6 03be
00000030: 83aa a23d 5a6a 603d dfbd 2cbe a5e4 07be
00000040: 3e42 4cbe 106f 963c ddb2 303e fe9d d63d
00000050: 7d30 a43c 86bd 023c 5bcb 8e3d 4801 0bbe
00000060: aa6f afbd 4a32 903d 2cf2 1a3e 33e6 0d3e
00000070: 6656 37be bac8 56be 29a5 413e faff 153e
00000080: c18c e1bd 49ac 4ebe 6efe 713e db69 453c
00000090: a2f1 11be 8c7c b2bd a99f ac3e 01aa 30be
000000a0: 0729 e13e 6f08 193e 7d5c a0bb e36d 9abb
000000b0: 8712 1f3e 3e29 a93e b0d3 863e b0d2 b3be
000000c0: 8637 ccbe 8a5a a73d af2d d8be 4b89 6fbe
000000d0: a712 20be c395 febe ed5a 6a3d 98bf ba3e
000000e0: 5a75 2ebe 135e 06bf 0352 8d3e 9099 de3d
000000f0: efae bebe 2339 f53d 7fd8 c2be 7c38 cabe
00000100: 2446 2c3e 06f1 8abe 14d9 503d 3fff 4b3e
00000110: a84e 4e3d 0f0b 943d 218e 7c3e f49d 51bd
00000120: 5162 983d c476 3d3e 26d2 f5bc 0ee8 b9bb
00000130: 79c8 c4bc 9b34 99bc f2ee 4fbd 5622 78be
00000140: 38ef 9abe 89ad 4abd e2b1 36bd b57c 5abd
00000150: 50e8 11be b2b8 acbd b745 24be 0eb6 9f3d
00000160: a10d fbbd a5b9 bebc 50bb 4b3e 87a3 d63d
00000170: 6268 95be 4f2b a0bc dabe 22be ae5e 83be
00000180: 19c6 19bd 8538 1cbe 09b2 803d b21e 36be
00000190: 36c7 0abe 946b 9f3d 5883 083e d7a1 dabd
000001a0: aada 813e 3543 32be 8db5 03be b56d b2bd
000001b0: ec4d 803c c8e9 cb3d 58bc 12bd 6af9 0dbe
000001c0: d725 dd3d caf2 d7bd 556c 96be 2282 773d
000001d0: 8c22 04be 44d0 50bc ab52 f4bd 0980 383e
000001e0: bc78 82bc 097e 743c d2fb d23c da66 12be
000001f0: 5aa9 db3c a604 9b3c f3f9 243e 7a8c 3dbe
00000200: 2dd8 153e e1d6 a6bc efeb 433d 002f a8bd
00000210: 9325 6cbd 0da8 b33d 7491 acbc 7bb9 8c3c
00000220: 7ab3 41bc 5e7a 663e bd55 293e ac50 dabd
00000230: d52b 6fbe f8f0 d63c d625 07bd e6ca 1d3c
00000240: bb9a 1cbd 4368 0fbe 4b38 b03d 7f2a 193d
00000250: b2e0 67bd 85b5 ab3b 6784 fc3d 44dd 14bd
00000260: 8a27 55bd d109 653e e699 66be 2340 16be
00000270: 7d32 94bd 39c1 7d3d 5869 68be 217f 5dbd
00000280: 5b7c c5bc d91f 8ebc 8864 343d e0bd d1bd
00000290: c147 20be c8f0 b939 e030 42be 5851 28bd
000002a0: 3021 413e c0d3 ccbc 5746 bdbd 40ac 66bd
000002b0: d7e3 2e3e 3bf0 3f3e 9eee 6f3e 7d2a 4abd
000002c0: 0a52 5b3d c5c3 3d3e d265 b1bd 56de d83d
000002d0: 7f6e dd3d eada 3cbe 90e1 053c f183 8d3d
000002e0: ff98 743b 22cd 02be fefb 5b3d 9b12 bd3d
000002f0: 7eda 2cbd 5429 2dbe 2a32 eb3d aaf0 c13c
00000300: c54a a43d e0de d6be d35d 8a3e a49d 503d
00000310: 9574 b23c 690e 1e3e 04a0 9a3e 3ec6 c83c
00000320: 5c2b f33d 76e8 c83e 2dad 5e3e 57e1 a5bd
00000330: d202 d6be 652f 113e db43 d53d 3a8a 04be
00000340: b0d5 62be 17d7 0abe bec9 8f3d 5cfc 35be
00000350: b6b2 633d 0a5a efbd 80ec 033d 1c6d 883e
00000360: 51a8 fd3d 94b4 b5bc 96ca 40be 2618 ef3d
00000370: 056d 9ebd a201 473e c958 84be 6fec 92be
00000380: 5caa c6bd b566 6fbe 334a 553d 22bd f0bc
00000390: 85dc db3d ac89 15be 633a 813d 9298 733d
000003a0: 790f 693c 2241 be3d 5373 97bd 1e58 0abe
000003b0: aea7 7dbe 3f2f 0abd bc4c e23d d3ef 61bd
000003c0: 7602 54be b6bf dc3d d2e5 06be 8439 883c
000003d0: 89db 5a3e 372d d03d b723 433e b9e1 693e
000003e0: 559a 76bc 2fad 1fbd 326e 81bd 9a11 20be
000003f0: 888e d8bd 40f2 f9bd df0f 36be 33f0 d7bd

gru.bias_ih_l0 f4 [96]
-0.0425945 0.073271565 0.19725278 -0.03723791 0.06010011 -0.15273987 -0.042065457 0.08999152
-0.14142802 0.02407166 -0.087642536 0.10257222 0.008364413 -0.05341028 -0.06563933 -0.05666846
0.1601307 -0.043085158 0.043049634 -0.047367096 -0.07760355 0.17505623 -0.009115115 0.15488397
0.19640993 0.20718195 0.17591132 0.20599501 -0.16463634 0.062514395 -0.068944015 0.08374287
-0.02601828 -0.44989973 -0.34815812 -0.26949227 -0.07837063 0.09165049 -0.45730653 -0.03060935
0.0030863166 -0.30844992 -0.33133203 -0.26906535 0.01699619 0.080430664 -0.35952538 -0.022525765
-0.17820081 0.0445898 -0.15944993 -0.18102135 -0.2035771 -0.21824199 -0.040941305 -0.33886525
0.11499716 0.094740845 0.06726544 0.12090369 -0.51152074 -0.1264131 -0.070553795 -0.11537987
-0.008932748 -0.11051698 -0.09478223 0.087105215 0.024995983 -0.14121635 0.18931971 0.02829716
-0.049781267 0.07942318 0.14631379 -0.10621512 0.0073997728 -0.09394002 -0.038820077 0.028275833
-0.070229314 -0.17039719 -0.042102348 -0.10659493 -0.035535187 -0.18055914 -0.03461221 0.036871694
-0.15483132 0.040723868 0.13325709 0.12192814 -0.21196756 0.14303185 0.12990382 -0.019518098
00000000: 9277 2ebd 670f 963d a2fc 493e c786 18bd
00000010: 882b 763d d767 1cbe d44c 2cbd 794d b83d
00000020: 82d2 10be ee31 c53c ee7d b3bd 6211 d23d
00000030: e40a 093c bdc4 5abd ea6d 86bd 301d 68bd
00000040: 4df9 233e 107a 30bd d054 303d 0004 42bd
00000050: 9cee 9ebd f141 333e 9057 15bc e799 1e3e
00000060: af1f 493e 8127 543e 1922 343e 5bf0 523e
00000070: 6e96 28be 8c07 803d 8532 8dbd 6281 ab3d
00000080: 4a24 d5bc 4259 e6be c841 b2be e4fa 89be
00000090: c880 a0bd 41b3 bb3d 1524 eabe 76c0 fabc
000000a0: cd43 4a3b 26ed 9dbe 5aa4 a9be efc2 89be
000000b0: 983b 8b3c d5b8 a43d b613 b8be f487 b8bc
000000c0: 467a 36be cba3 363d d846 23be a95d 39be
000000d0: 8476 50be d47a 5fbe 12b2 27bd bf7f adbe
000000e0: a283 eb3d 7d07 c23d 77c2 893d 5b9c f73d
000000f0: 06f3 02bf 7072 01be 827e 90bd 484c ecbd
00000100: a95a 12bc ba56 e2bd 301d c2bd 3864 b23d
00000110: 60c4 cc3c 059b 10be 07dd 413e 72cf e73c
00000120: 71e7 4bbd 9fa8 a23d 48d3 153e 5087 d9bd
00000130: cb79 f23b a063 c0bd cd01 1fbd b8a2 e73c
00000140: 63d4 8fbd 9a7c 2ebe 8373 2cbd 714e dabd
00000150: 588d 11bd 7fe4 38be 88c5 0dbd c606 173d
00000160: 1a8c 1ebe 12ce 263d 8c74 083e 76b5 f93d
00000170: 060e 59be f176 123e 8205 053e 6be4 9fbc

gru.bias_hh_l0 f4 [96]
-0.103910334 0.036837075 -0.051783428 0.18418147 -0.10726756 -0.16871616 0.19704464 0.1418715
0.12304533 0.015546265 0.01645772 -0.059154183 -0.12762576 0.14483468 0.046555005 -0.08432466
0.0768486 -0.047231074 -0.23211452 -0.048242792 -0.045702435 0.17629977 0.14229064 -0.1288232
-0.12818258 0.15491943 -0.012784801 -0.04507271 -0.0019856228 -0.081903495 -0.08103249 0.19236353
-0.1524045 -0.44625354 -0.40632728 -0.18811522 -0.16828884 -0.030502254 -0.23921666 -0.009541875
-0.20339487 -0.12472643 -0.24386224 -0.45534667 0.077418506 -0.05208153 -0.29444075 0.093430035
-0.23858055 -0.072904006 -0.06431042 -0.32368624 -0.14517848 -0.19687383 -0.025997585 -0.3999932
0.025841855 -0.16643222 0.036145106 0.12665963 -0.41448793 -0.07048819 0.009909643 -0.10816077
-0.18315773 -0.12441629 0.12578762 0.05227171 0.082431465 -0.011025218 0.1607882 0.0445561
0.1261201 -0.10482232 0.10598095 -0.052961744 -0.07827215 0.0535031 -0.08090445 -0.19158335
-0.17916913 -0.09596323 0.0297532 -0.20148288 -0.03681594 -0.07843451 -0.09174479 0.03463865
0.014756311 -0.14537102 -0.0805933 0.06747691 0.07688926 -0.08099631 -0.15925404 -0.13733512
00000000: f1ce d4bd 79e2 163d dc1a 54bd 119a 3c3e
00000010: 18af dbbd eec3 2cbe 12c6 493e c346 113e
00000020: 31ff fb3d c3b5 7e3c 57d2 863c a84b 72bd
00000030: 54b0 02be 8b4f 143e 76b0 3e3d 68b2 acbd
00000040: cc62 9d3d 5f75 41bd 6eaf 6dbe 3c9a 45bd
00000050: 7a32 3bbd ed87 343e a3b4 113e 3bea 03be
00000060: 4b42 03be 33a3 1e3e 5877 51bc 299e 38bd
00000070: 3921 02bb 05bd a7bd 5df4 a5bd f2fa 443e
00000080: ed0f 1cbe 587b e4be 210a d0be 47a1 40be
00000090: e953 2cbe dddf f9bc 36f5 74be 8655 1cbc
000000a0: bf46 50be 9270 ffbd 06b7 79be 3323 e9be
000000b0: 988d 9e3d 7153 55bd f0c0 96be 3f58 bf3d
000000c0: 764e 74be b24e 95bd 2eb5 83bd 34ba a5be
000000d0: aba9 14be 4b99 49be e3f8 d4bc e9cb ccbe
000000e0: 4cb2 d33c 356d 2abe e40c 143d 10b3 013e
000000f0: c337 d4be 1d5c 90bd 0e5c 223c 6583 ddbd
00000100: b38d 3bbe f8cd febd 78ce 003e dc1a 563d
00000110: d4d1 a83d 1ea3 34bc a9a5 243e 7580 363d
00000120: a125 013e 16ad d6bd 8a0c d93d 6aee 58bd
00000130: 264d a0bd 1126 5b3d 3bb1 a5bd 6d2e 44be
00000140: 1d78 37be 5f88 c4bd fcbc f33c 8751 4ebe
00000150: 50cc 16bd 46a2 a0bd b1e4 bbbd 42e1 0d3d
00000160: 74c4 713c 24dc 14be 1a0e a5bd 5631 8a3d
00000170: 1e78 9d3d 65e1 a5bd 7e13 23be 94a1 0cbe

fc.weight f4 [1, 32]
-0.09286117 0.31301516 -0.33831602 -0.17889394 0.08222148 0.1437251 -0.49194983 0.10434621
0.023591163 -0.28772622 -0.42555374 0.31758723 -0.24051414 -0.14124624 -0.23265557 0.27215552
0.39777356 -0.0717899 0.06857558 0.37430924 0.22222815 0.35172933 0.21775825 -0.43667346
0.08431255 0.31009722 -0.25751644 0.015916763 0.54175115 -0.18314959 0.16077028 0.28714955
00000000: ff2d bebd 8643 a03e c237 adbe f92f 37be
00000010: bc63 a83d ac2c 133e d9e0 fbbe 77b3 d53d
00000020: 4142 c13c da50 93be 2ee2 d9be cb9a a23e
00000030: 5749 76be dba2 10be 433d 6ebe f857 8b3e
00000040: faa8 cb3e 9506 93bd 5b71 8c3d 76a5 bf3e
00000050: c78f 633e de15 b43e 05fc 5e3e aa93 dfbe
00000060: 0fac ac3d 10c5 9e3e 32d9 83be df63 823c
00000070: 34b0 0a3f 918b 3bbe f7a0 243e 4405 933e
