project/best_grusb_model_K1.pth (torch, 21733 bytes, 5 tensors)

gru.weight_ih_l0 f4 [96, 14]
00000000: 42c1 edbc 48f5 333e f5bd 303e cd9c cc3c
00000010: b6c2 063e b089 613d 6517 563e aec2 febd
00000020: 88a1 ea3d 6742 1ebe 415e 2d3d 028f 843e
00000030: 3ffc dd3d 2e11 9dbc 9eed 05bc 2bab 243e
00000040: 40a7 22bc 8d22 853e ae24 cf3d bcce da3d
00000050: 3c52 b53c dd2e fdbd 8180 a5ba 95b8 99be
00000060: 2495 18bd 2304 803e edaa 6e3e 5dc2 43be
00000070: edf6 a3be 5c3b 853e f709 ccbd 7001 1f3d
00000080: 5398 603e d50e 043e 38a1 113e e86c 2abe
00000090: 5593 853d e813 b6be 7cca 70bd 2f02 dc3e
000000a0: bd14 c5bd 0af5 ccbd 90e7 97bd 109e 2d3e
000000b0: 1e08 1b3d 9346 da3e 385f 853e 7bdf 37be
000000c0: dd26 213e 8a7a 67be a77d 203e a438 75be
000000d0: 9b5b 9ebd 4bb2 e53e 7059 f43d d4fc ffbd
000000e0: 0d07 0cbe 16a2 d13d 0400 b33d 7b0c f13c
000000f0: 461f b83e 2e0e 5b3e 7f95 ef3d 1bb0 fb3c
00000100: 9908 203d c9f9 53be 315b 9ebb ac0e 943e
00000110: 723d 4f3e 3661 9bbd 5960 a0bb af8a 093e
00000120: ed5e 103e 4f04 343e 3a91 d23e fb2a 50bd
00000130: 7870 84bd 8667 813d bac9 7a3e be9a 9cbe
00000140: b690 9bbd 9ead c93e 424e 30bd aa53 b1be
00000150: 3bed b3bc deed 703e 8e04 c2bd 8b5e 953e
00000160: 0fe2 a63e 913c f93d ed5d 053d da10 0bbd
00000170: fc8c 103c 64e4 b1bd b562 71bc 323b 463e
00000180: e119 4a3e 8348 9bbe 84f7 a03e f069 bfbe
00000190: f025 b1be 0b96 b8be 8cb2 88be 8d82 9a3e
000001a0: 6053 b4be c2cb dfbc a76a 90bb ed9b 4d3e
000001b0: 2c32 423e 3b4e b3be 2225 5c3d e3ae 3b3e
000001c0: 6f1b fdbd 4125 903e 7f27 8d3e af6e b53d
000001d0: 4bd6 9b3e 6824 23be f86d 3c3d 69e8 b13c
000001e0: 3f20 0e3e 0bc2 a9be 3af3 1c3c 6154 d13e
000001f0: e9ec d73c 0832 dabd 6a8b d2bc 103c f83d
00000200: 85c8 9bbc d1c7 2d3e ae6d ab3e 52da c93d
00000210: 22f7 71bd 8673 bfbd b1d1 b93d ae83 1fbe
00000220: a6ae 83bc 817d 323e ce56 a03d f7f5 90bd
00000230: 7b80 2dbe 3e0c 4e3e e02b 423d 77d1 943e
00000240: 3792 803e 6abe 153e dfbe eabc bac4 3dbe
00000250: e0f2 533e 7923 26bd c95b 493c 7df2 ed3d
00000260: 4cce 1d3c e79e a1bd bfc7 cd3d b745 4b3e
00000270: f059 f43d 8ee3 cc3e 013b ce3d 45b7 94bd
00000280: fdb8 4f3e 416c 00be 0c44 973e add6 3cbe
00000290: 2711 bfbc fc3b 9f3e 43bd 623e ed56 30bd
000002a0: 91ca dfbc 6332 99bc fa42 9ebe d0cf 23bc
000002b0: 6c03 76be e7f1 a13d 4e83 84be 7a0a a73b
000002c0: 6aa0 80bd ae93 3d3e a44e f7bd be89 8cbc
000002d0: 8f75 0a3d e843 d93d cee6 9d3c 817c 403e
000002e0: fbe6 d3bd a691 9a3d 20ae 2cbd aff0 3d3e
000002f0: b647 92bd 2d62 92bd 68b5 603e 72ba 12be
00000300: 6071 0f3e 746f a5bc 8f4c 193e 09f5 463d
00000310: 3fff 6d3e 0968 043e 1465 023e 8ebc 473e
00000320: 144a bb3e b804 3a3e a545 8c3e 2227 95be
00000330: 4b18 963d ccae b1be e602 003e 5058 f73e
00000340: a4f0 233c 9e59 aabd 0139 9a3c 1c17 943c
00000350: 9fea c3bd bebc 01be 7a51 80bd 105b 673e
00000360: 5186 72be a1ff 0fbe b12f 56be c073 98bd
00000370: f7df 5abe 9b91 033e 2592 0cbe c9fe 5ebe
00000380: 5037 00bd 0f2d 50bc 3c2c 79be 47f8 05bc
00000390: b934 63be c14e 853e 82b7 b9be 86b7 97bd
000003a0: 86d9 033e 1292 87bd cfd3 123e 7cb8 0abe
000003b0: 2c35 f93d 2287 d7bb fb55 afbc 34d9 5d3d
000003c0: d977 173e 7c97 c03e 32b3 ef3e 1dee 9d3c
000003d0: 2b8b 0ebd 2f13 c4bd 1487 0b3e e862 83be
000003e0: 4606 9c3d 385f 953e acd1 08be 20a8 7ebd
000003f0: 5cde 16be 7d13 bb3e 7893 1f3e 43a5 843e
-0.029022817 0.17574036 0.17259963 0.024977112 0.13160214 0.05506295 0.20907362 -0.12439476
0.11456591 -0.15455018 0.042326216 0.25890356 0.10839128 -0.019173231 -0.008174328 0.1608092
-0.009927571 0.26002923 0.10114418 0.10683963 0.022133939 -0.12362454 -0.0012626798 -0.30023637
-0.037251607 0.25003156 0.2330739 -0.19117112 -0.32024327 0.2602185 -0.09962838 0.03881973
0.21933107 0.12896283 0.14221656 -0.16643107 0.06522242 -0.35562062 -0.058786854 0.42970416
-0.09623096 -0.10007675 -0.07417214 0.16954827 0.037849538 0.4263197 0.2604921 -0.17956345
0.15737481 -0.22605339 0.15672933 -0.23947388 -0.07732316 0.4486259 0.11931121 -0.12499395
-0.13674565 0.102359936 0.08740237 0.029424896 0.3596136 0.21392128 0.11698436 0.030723622
0.0390707 -0.20700754 -0.004832648 0.28917444 0.20238283 -0.07586901 -0.004894298 0.1343181
0.14098711 0.17579769 0.41126424 -0.05082224 -0.06466764 0.06318574 0.24491015 -0.3058681
-0.07595961 0.39390272 -0.043043382 -0.34634143 -0.021963706 0.23528239 -0.09473525 0.29173693
0.32594344 0.12169755 0.032560278 -0.033951618 0.008822676 -0.0868614 -0.014733006 0.19358519
0.19736435 -0.3032876 0.3143884 -0.3738551 -0.34599257 -0.36051974 -0.2669872 0.30177727
-0.3521986 -0.027318839 -0.004407245 0.20079012 0.18964452 -0.35020623 0.05374635 0.18328433
-0.12358748 0.28153422 0.27569196 0.08859002 0.3043693 -0.15931857 0.046003312 0.021717267
0.13879488 -0.33155856 0.009579474 0.40884688 0.026358085 -0.10654074 -0.025701243 0.12120831
-0.019016514 0.16970755 0.33482116 0.098560944 -0.059073575 -0.09348206 0.090731986 -0.15577576
-0.01607449 0.17430688 0.07829057 -0.07078164 -0.16943543 0.20121858 0.047405124 0.2906606
0.25111553 0.14623418 -0.028655468 -0.18532076 0.20698118 -0.040561173 0.01228995 0.116185166
0.009631705 -0.07891636 0.10047864 0.19850813 0.11931217 0.4001736 0.10069848 -0.072615184
0.20285411 -0.12541296 0.29544103 -0.18441267 -0.023323609 0.31100452 0.2214251 -0.04305165
-0.02731827 -0.018700784 -0.30910474 -0.009998277 -0.24024743 0.07907467 -0.25881428 0.0050976845
-0.062805966 0.18513367 -0.120755464 -0.017155524 0.03380352 0.10608655 0.019275095 0.18797494
-0.103467904 0.075473115 -0.042158246 0.18548845 -0.07142584 -0.07147632 0.21944201 -0.14328936
0.14008093 -0.020194747 0.14970611 0.048573527 0.232419 0.12930311 0.1273387 0.19505522
0.36579955 0.18165863 0.27396885 -0.29131418 0.07328852 -0.34703672 0.12501106 0.48309565
0.010006104 -0.08317874 0.01882601 0.018077426 -0.09566235 -0.12669656 -0.062655404 0.22593331
-0.2368405 -0.14062358 -0.2091663 -0.074439526 -0.21374498 0.12848513 -0.13727625 -0.2177688
-0.03130275 -0.012706055 -0.2433328 -0.00817687 -0.22188081 0.26036647 -0.36272818 -0.07408051
0.12875947 -0.066196576 0.14338611 -0.13546938 0.12168345 -0.0065773884 -0.021403303 0.05416222
0.14791812 0.37615573 0.46816403 0.01927858 -0.03480069 -0.095739715 0.13625747 -0.25661397
0.07618384 0.2917421 -0.13361233 -0.062172055 -0.14733261 0.36538306 0.15583599 0.25907335

gru.weight_hh_l0 f4 [96, 32]
00000000: 0237 10be a83d 27bd 1d40 50be 4b58 88be
00000010: 411f 77be 620d d4bd 4b48 553d 59ed aa3d
00000020: 2a33 d03d 39de 263e 58ea f13d 2b17 153e
00000030: b9d1 123e 1196 a3bd c9a9 bdbc 42a3 d4bd
00000040: 3e9d b5bd 9505 8dbe caf5 213e 5f9a 05be
00000050: 7819 563e 6bfc fdbd 8810 9cbe 0ae5 2b3d
00000060: 6bdd 233e e2ad 47be 1ca8 78be 5096 633e
00000070: aafa 513e 45a0 bc3e b28a 9ebd 98c3 5bbd
00000080: abdb c5bd b297 8f3d aff7 c8bd c68f 32bd
00000090: 9ca3 d2bd 50ee 5b3e dc49 74be c56b e9bd
000000a0: a16b 893d 47b3 123e 7d1d adbb 89cb bf3d
000000b0: 0f71 143e a405 4cbe c7b6 da3d d592 c4bd
000000c0: b652 d3bd d72a 5fbe 67fd d1bd 0e3a aabc
000000d0: 53c7 303e e990 3ebc 981a 82be cb14 803d
000000e0: f231 2bbd 46e4 5dbe 8e37 77be 8a1d 743d
000000f0: a1f3 cdbc 0e34 e63e a12f 193e a0a1 de3d
00000100: a491 a4bd d98e 02be 0b8a f3bd 9b02 96bd
00000110: 050a d8bd 18d3 023e 38b9 96be b38f d9bd
00000120: dbc9 cd3c b985 0dbc c904 68be ec61 aabd
00000130: 36e1 64bd 7c09 91be e607 c4bc 79cb ecbc
00000140: 8370 5dbe 2cdd bfbc 9f6c 073e 591c 7e3c
00000150: a9b0 1e3c 1356 babe 5a11 14be d3e5 60be
00000160: 9635 113e b33f 78be 872f 6ebd 2592 b33e
00000170: 5cbc 003e 32f7 813e e7fb 1bbe a195 b93d
00000180: 77a7 73bd f7d3 4ebe 4e2a cfbd 6fda d9bd
00000190: 340b 27be 491c c8bd 836a 6ebe 02a6 92be
000001a0: 08c7 ddbd 9612 1b3d e60f e93c 27c5 953c
000001b0: 148d 8fbc 70a5 6dbd 1d7e 0c3e bbbd 7d3c
000001c0: af97 24be 155b 84be 9b78 36be cda6 c23b
000001d0: 4152 7c3e 40a5 db3d c257 a8be 1324 bdba
000001e0: 6aa0 3c3d 8ce6 c1be 3eac 74be 71c6 433e
000001f0: 6635 543d c8fa 1a3e 6540 8a3e d101 233d
00000200: c86a cd3a 0c9e 3c3e 6e7f 233d 00f0 0bbe
00000210: 4263 07be 065f 8b3e 90d5 5dbe cde6 15be
00000220: afcf 733e bf64 313e 6303 083e 9538 1bbe
00000230: f21d f83d ea00 013c 12f2 f3bd aa6a 49bd
00000240: 2056 73be 5625 e8bc 8315 c13c 3d1c 503e
00000250: d7f2 f33d 48f4 f4bd 307e 0ebe 028c 83bd
00000260: 04a5 21bc 88d0 16be a0f2 ce39 3434 c03d
00000270: b767 86bd 7686 5c3e c39f 183e 17b6 a3bd
00000280: 7847 38be e2d4 063e d486 893d 53cd b7bd
00000290: 2f9c 44be 4aab 363e 88eb 5fbe cd5d 913d
000002a0: e1a1 2dbd b804 26bd 00d4 9bb8 1802 bc3d
000002b0: 156b 7b3d f22b 2ebc be70 ccbd e46c 7fbe
000002c0: 99e4 7fbe eb69 473c e567 233d ece7 7bbd
000002d0: 4e41 433d be15 15bd 4ec0 d9bb fe9c 39be
000002e0: f65e 023e df76 3dbe 9dbb 3fbe d003 723e
000002f0: 8dac 913e 9a04 473e 254a a1bd 0791 4cbc
00000300: d1d0 1abe 02f5 16be 7209 63be 9477 acbe
00000310: 12f4 3abe 5c9f 293e 1b0a 93be d605 273c
00000320: fe77 64ba 0f8c 99bd fd37 92bd be87 b43c
00000330: f423 c3bd 9715 9ebd 69df 883c 5a73 86be
00000340: e694 53bd 6669 06bd 8f63 8a3d 3879 173e
00000350: 8f16 123e de49 9fbd f8f5 eebe 1fcd 13be
00000360: 4cbc 1d3e bdd0 aabe b5f4 b9be 4f3c 7e3e
00000370: 6cc1 803e 4014 f03d b815 d73d 59dc 42bd
00000380: 5ade 07bd 075e 1c3e 881e eb3d 9f74 6abd
00000390: 803d 07be fd85 bdbd fbc9 a1bd 6dff efbd
000003a0: ef10 823e eda9 863e 8be0 60be 72d4 b4be
000003b0: c791 473d c6e5 3fbc 79ec 963c 2e9b 0d3d
000003c0: fc06 a6bd 8110 50bd ff06 6cbc 32da 7f3e
000003d0: 4342 3a3e dcd2 b3bd 1521 a53d 9934 84be
000003e0: c3e4 523d 0fd6 95bd feef 2dbe c6f8 b8bd
000003f0: 091e 5ebd 2958 f03d 5bf0 8a3d 90e8 c93d
-0.14083484 -0.040830284 -0.20336957 -0.26629862 -0.24133016 -0.10354115 0.052070897 0.08346052
0.10166009 0.16295709 0.11812276 0.14559619 0.14337815 -0.07987607 -0.023152249 -0.103827015
-0.08867882 -0.2754332 0.15816417 -0.13047169 0.20908153 -0.124016605 -0.30481362 0.041966476
0.16002433 -0.19499925 -0.24282879 0.22225308 0.20505777 0.36841026 -0.07741298 -0.05365333
-0.09661039 0.070113555 -0.09812867 -0.043594144 -0.10285112 0.21477628 -0.238563 -0.113975085
0.06709982 0.14326201 -0.0052830563 0.09364993 0.14496253 -0.19924027 0.10679393 -0.095983185
-0.1031851 -0.21793686 -0.10253411 -0.020779636 0.17263536 -0.011631229 -0.25410914 0.06253966
-0.04179568 -0.2166911 -0.24142286 0.059598483 -0.025140585 0.4496159 0.14959575 0.10870671
-0.08035591 -0.12749805 -0.11891564 -0.07324716 -0.10548786 0.12775838 -0.29438186 -0.106231116
0.025120666 -0.008637839 -0.22658075 -0.08319458 -0.05587884 -0.28327549 -0.023929548 -0.028905617
-0.21624951 -0.023420893 0.1322503 0.015509688 0.009685674 -0.36393794 -0.14459744 -0.21962671
0.14180598 -0.2424305 -0.058150794 0.35072437 0.12571853 0.25383908 -0.15232812 0.090617426
-0.05948588 -0.20198046 -0.10115491 -0.10637366 -0.16312867 -0.0977102 -0.23282818 -0.2864228
-0.10828978 0.03785952 0.028449964 0.018282486 -0.017523326 -0.0580191 0.13719983 0.01548713
-0.16073488 -0.2585074 -0.17819445 0.0059402944 0.24640752 0.10724878 -0.32879454 -0.0014430307
0.04605142 -0.37871206 -0.2389383 0.19118668 0.051808737 0.15134728 0.27002254 0.039796654
0.0015672082 0.18419665 0.03991645 -0.13665771 -0.13221458 0.27220935 -0.21663499 -0.14638825
0.23809694 0.17323588 0.13282542 -0.15158303 0.121150866 0.007873753 -0.119114056 -0.04917399
-0.23763323 -0.028338116 0.023569828 0.20323272 0.119115524 -0.119606555 -0.13915324 -0.06423189
-0.009866003 -0.14727986 0.00039472152 0.09384957 -0.06562751 0.21535668 0.14904694 -0.07993715
-0.17996013 0.13167146 0.067151695 -0.08974709 -0.19200204 0.17838779 -0.21867192 0.07097969
-0.042390708 -0.040531844 -7.430464e-05 0.09180087 0.06138142 -0.010630595 -0.09982441 -0.24943882
-0.24989547 0.012171249 0.039894003 -0.061500475 0.0476697 -0.036397688 -0.006645239 -0.18126294
0.12731537 -0.18502377 -0.18723913 0.23634267 0.28451958 0.19435349 -0.0787547 -0.012485749
-0.1511872 -0.147419 -0.22171572 -0.3368498 -0.18257168 0.16564697 -0.28718647 0.0101942625
-0.000871539 -0.07497417 -0.07139585 0.022037383 -0.09528342 -0.07718962 0.016708093 -0.2625988
-0.051655672 -0.03281536 0.067572705 0.14792335 0.14266418 -0.07777761 -0.46672034 -0.14433716
0.15403861 -0.3336238 -0.3631951 0.24827693 0.2514757 0.117226124 0.105021894 -0.04757342
-0.033171035 0.15270244 0.11480433 -0.057240125 -0.13207054 -0.09254072 -0.07899853 -0.117186405
0.25403544 0.26301518 -0.21960656 -0.35318333 0.04872301 -0.011712497 0.018423306 0.03457182
-0.08106801 -0.05079699 -0.014405965 0.24985579 0.1818934 -0.087804526 0.080629505 -0.2582138
0.051487695 -0.07316219 -0.16986081 -0.09031825 -0.054227863 0.11735565 0.067841254 0.09858811

gru.bias_ih_l0 f4 [96]
00000000: 5ec8 7abd 2da3 1f3d 70ef ea3d fb13 303e
00000010: c1a9 8fbb b19c 2e3e 2dbc 8a3d 4038 4d3d
00000020: faea 6e3e 91d5 893d f0e8 803d e846 35bd
00000030: c41a cc3c 61ab 243d 928d b53d 366b 4cbe
00000040: d708 28bd 2a51 4c3e 720a 093e e075 93bc
00000050: 6650 a8bd bea3 13bc 384c d93d 561b 8a3d
00000060: ac14 273e d0cb 01be bdde dcbd 5957 c53d
00000070: eb58 963d c507 853d 193d 20be 7117 073d
00000080: e1d9 45bc a127 aabd 8ea5 ccbe 30d5 09be
00000090: 9af3 babe 9678 9abe e48a dfbd bb6f 64be
000000a0: 06ed 0cbe b78c 38be 2773 52be 1a23 88be
000000b0: 8440 74be da62 9bbe bf43 babe ad47 e1bd
000000c0: b7f2 11be fabd acbe b56d 91be 3dbe 2e3d
000000d0: 9482 0fbe 6858 7abe 6629 5fbe b35d 8fbe
000000e0: b99d 47be 19e4 6dbe 678b e9bd 43e1 e2bd
000000f0: 0b38 69be 0d3f f13d dc75 81be a844 34be
00000100: 63a1 10be 60e0 35be 6537 883d 7911 19be
00000110: 8215 41be 260c 68bc 3fec 64be d809 0f3e
00000120: 0b42 213e 5bb9 d23d ccd3 74be de02 8e3c
00000130: 8779 ffbd 9cac 25be e936 40be 7fbf 00be
00000140: 4756 4ebe db9e c0bc 49c0 c03d 1b22 aebd
00000150: 50c8 8c3b 8718 cebd 54b2 1bbe c7c8 31bc
00000160: 1742 023e 03e5 2dbe 8f87 95bd 6723 103e
00000170: 539c 0a3e df02 f23d fe85 63be 96f7 1fbd
-0.06122624 0.038973976 0.1147145 0.17195122 -0.00438425 0.1705196 0.06774173 0.050102472
0.23331824 0.06730188 0.06294429 -0.044257075 0.024915107 0.040202502 0.08864893 -0.19962773
-0.041024055 0.19952837 0.13382891 -0.018000543 -0.0821846 -0.009011207 0.10610241 0.06743495
0.1631648 -0.12675405 -0.107846715 0.09635801 0.073411785 0.064956225 -0.15648307 0.03298134
-0.012075872 -0.0830834 -0.39970058 -0.13460231 -0.36513978 -0.30170125 -0.10915163 -0.22308247
-0.13762292 -0.18022428 -0.2055174 -0.2658928 -0.23852736 -0.30348855 -0.3637981 -0.10999999
-0.14252745 -0.3373869 -0.28404012 0.042661894 -0.14014655 -0.24447787 -0.21793136 -0.28001174
-0.1949376 -0.23231544 -0.11403542 -0.110781215 -0.22775285 0.11779604 -0.25285232 -0.17604315
-0.14124064 -0.17761374 0.06651191 -0.14948072 -0.18855861 -0.014163053 -0.22355746 0.13968599
0.1574785 0.1028926 -0.23908919 0.017335352 -0.124743514 -0.16179127 -0.18770947 -0.1257305
-0.201501 -0.023513248 0.094116755 -0.08502599 0.00429634 -0.10063272 -0.15204746 -0.010851092
0.12720524 -0.16981892 -0.073012464 0.14076005 0.13536195 0.11816954 -0.22219083 -0.039054476

gru.bias_hh_l0 f4 [96]
00000000: 3886 87bd 34c1 443e a619 803d 301c 163e
00000010: 380a 0b3e 5115 f83d c4a8 003e cfe9 99bd
00000020: 1976 613e d115 743b 2493 ab3d bc90 c33d
00000030: a1e9 4dbd db85 343e 9dcf 163e 1782 08be
00000040: 5168 93bd d377 cbbc 3637 673e 9265 52bc
00000050: 1aa0 11bd 689a 753e 1e7d 12be 93ce 29bd
00000060: 884c 13bd 73c8 db3d 057c 17be e1c9 a3bd
00000070: dc9b 09be b4c1 a6bd 4919 143e 4a81 013e
00000080: 195a fabd a368 92bd b384 b8be d2e4 d4be
00000090: 3c89 c3be f981 e0bd 6638 3ebe 4bf3 98bd
000000a0: 585b 55be 0da6 a3be 041f 2cbe 04bd 76be
000000b0: 7291 9bbe 47c3 82be 2f7d a7be 9153 12be
000000c0: 9f45 8dbb e97e 86be 911f a4be bc4e 52be
000000d0: d6cd abbe 8e78 71be abbf b7bd b30f bbba
000000e0: 3de7 62be f3d8 b9be a7bb a4bd 969d 86be
000000f0: d2b1 a8ba e59b dfbd 724b babd c1c8 bcbd
00000100: 886a 33be 854d 0b3e 498d 4cbe 98dc 72bd
00000110: 382e 6fbd 72fb 063e fa69 27be 45eb c83d
00000120: c51b 3f3e 8677 5e3e 6616 45be 9eea 5fbe
00000130: 7114 fa3c 6bc2 0b3c 76e3 2cbe 36e1 f9bc
00000140: db33 e33d 8cd1 06be d074 303e 6fed 833d
00000150: e3f3 873d f028 56bd 280a 7b3d 57fe 2dbe
00000160: db75 f53d 8c6f 4fbe b9bb f13c 4d16 3a3e
00000170: d334 0d3e 2444 263e cd87 013d ec1d 563d
-0.06617397 0.19214326 0.06254892 0.1465919 0.13578117 0.12113441 0.12564379 -0.075152986
0.22017707 0.003724445 0.08377674 0.0954909 -0.050271634 0.17629187 0.14727636 -0.13330875
-0.07197631 -0.02483741 0.22579655 -0.012841599 -0.035553075 0.23984683 -0.14305541 -0.04145677
-0.035961658 0.10731592 -0.14793403 -0.0799749 -0.13438362 -0.08142415 0.1446277 0.12646976
-0.12224216 -0.07148864 -0.3603874 -0.41580826 -0.3819064 -0.1096229 -0.18576202 -0.074682795
-0.20835626 -0.31962624 -0.16808707 -0.24095541 -0.30384403 -0.2553961 -0.32712695 -0.1428969
-0.004311278 -0.262687 -0.32055333 -0.20537847 -0.33555478 -0.23581144 -0.08972105 -0.0014271647
-0.22158523 -0.36298332 -0.08043604 -0.26292104 -0.0012870377 -0.109184064 -0.09096421 -0.09217978
-0.17521107 0.1360379 -0.19975771 -0.059292406 -0.058393687 0.13181856 -0.1634902 0.09810499
0.18662937 0.21725282 -0.19246826 -0.21866843 0.030527325 0.00853024 -0.16883644 -0.030502897
0.11093875 -0.13165873 0.1723206 0.06441771 0.066383146 -0.052285135 0.061288983 -0.16991554
0.1198537 -0.20257396 0.029508458 0.1817257 0.13789682 0.16236931 0.03162365 0.05227463

fc.weight f4 [1, 32]
00000000: e1f0 153e 5322 0fbe b891 a23e 2a94 963e
00000010: 08ed c73e b472 8cbe 0ba5 da3e 5d79 453e
00000020: 1522 8dbe 22c6 97be ccb7 503e ae32 ac3e
00000030: 7ed0 613e d9db 2a3e f8d9 1a3e 5aca 963d
00000040: c9dd 893e a85b 933e e662 27be ffa9 e4bd
00000050: 9efc c3be 8b1f a23e 8eaf b93e 12e9 6b3e
00000060: 2fe2 19be b243 703e 319f 843e 31b1 bcbe
00000070: db58 653e 4582 2c3d bb91 a13e a324 b5be
0.1464267 -0.13977937 0.317518 0.29409915 0.39048028 -0.27431262 0.42704043 0.19284578
-0.27565065 -0.2964335 0.20382613 0.33632416 0.2205219 0.16685428 0.15122211 0.07362814
0.2692702 0.28780866 -0.1634632 -0.11165237 -0.3827867 0.3166469 0.3626675 0.23038128
-0.15027688 0.23463324 0.25902703 -0.36853936 0.22397177 0.042116422 0.31556496 -0.35379514
