project/best_grusb_model_K5.pth (torch, 21733 bytes, 5 tensors)

gru.weight_ih_l0 f4 [96, 14]
000000 30 7e b5 3d c4 85 a3 be 83 77 49 be b6 ba 98 be
       0.08861959 -0.31937993 -0.19674496 -0.2982995
000010 23 3f be be 18 86 09 3f b0 0f 63 bd 17 c7 25 3d
       -0.37157544 0.53720236 -0.055434883 0.04047307
000020 9b 2d 43 be 39 22 e3 bd 35 a3 6c bd 9a 7d a8 3d
       -0.19060366 -0.11090512 -0.057772834 0.082270816
000030 9d b3 2a 3e 68 10 7c 3d 47 f9 61 3e fa 9f e1 3e
       0.1667008 0.061539084 0.22067748 0.44067365
000040 f5 b2 0b 3e 04 7f ad 3d 87 03 ca 3e 87 e1 80 3c
       0.13642485 0.08471492 0.39455816 0.01573254
000050 fd 1d 96 bd 8e 5e 30 bc be 99 13 3e b4 2a 38 be
       -0.073299386 -0.010764731 0.14414117 -0.1798504
000060 96 0f 27 3d 25 1d 05 3f 67 10 f7 3d 71 a9 e1 be
       0.04078635 0.51997596 0.120636754 -0.44074586
000070 9d 4f bd 3d 36 b4 a0 be 3d c2 7a be d5 23 b1 be
       0.09243701 -0.3138749 -0.24488159 -0.3459765
000080 de 24 e9 bd 97 33 97 3d d0 6b 27 be 1d 3f 0a 3e
       -0.11383985 0.07382887 -0.16349721 0.13500638
000090 79 59 20 3e 03 b7 17 3e dc f5 1e 3e 7a 40 68 3d
       0.15659131 0.14815907 0.15523475 0.056702115
0000a0 1d ea 95 bd 86 bc 01 3e 09 f8 bc 3d 0f 85 8b be
       -0.07320044 0.12669572 0.092269965 -0.27249953
0000b0 88 17 21 bd 0b b5 ab 3d 80 68 8e be 4d 5d c4 bc
       -0.03932908 0.083841406 -0.27814102 -0.02397027
0000c0 14 12 9c be a5 95 44 3e 4d 16 ed 3d 4f b9 d8 bb
       -0.30482543 0.1919771 0.11576519 -0.0066138874
0000d0 3e a4 d5 3c 3f cb 80 bd ad ab 3b bd f0 99 77 3d
       0.026079293 -0.06288766 -0.04581802 0.06044954
0000e0 f4 f0 43 3e ba 9f 93 be 23 4a 73 bd ef 95 19 bd
       0.19134885 -0.288328 -0.059396874 -0.037496503
0000f0 2f 94 04 bf 07 57 00 3e 29 ca 94 3d eb 21 67 bd
       -0.5178861 0.12533198 0.072651215 -0.05642883
000100 8c 9f 1d 3e 98 1d 10 3d 1a 6e 20 3e 2e 1c 80 be
       0.15392894 0.035184473 0.15667 -0.250215
000110 ab 2d 39 3e 9a 30 1e bd 0f 0e 5d 3d 46 49 38 3e
       0.18083827 -0.03862057 0.053968485 0.17996702
000120 36 df bb 3e f2 d9 49 3e bf 1d f7 3e ec a2 a9 bc
       0.36693734 0.19712046 0.48264882 -0.02070757
000130 d3 21 8a 3d f7 fe 00 be 30 75 50 3e 42 2f 48 be
       0.06744733 -0.12597261 0.20357203 -0.19549277
000140 e7 09 81 3d 0e 85 9c 3e 57 5a 3c be 9b f0 14 be
       0.06300717 0.30570263 -0.18393837 -0.14544909
000150 c8 f7 60 3d ad f7 04 be 47 94 0a bc 1f a9 dc bb
       0.054923803 -0.12985106 -0.008458204 -0.006734028
000160 9d 3a 98 3d ae f1 41 bd 3f 63 af bd cb bf b2 3d
       0.074330546 -0.047349624 -0.085638516 0.08727988
000170 85 c3 ab 3b c6 7b 5e bd cb cb 38 3e 05 79 1c bd
       0.0052418136 -0.05431726 0.18046491 -0.03820135
000180 4d 3b 3c bd d5 56 f6 3c fa 3b b4 3d 5d 6d 1f be
       -0.04595499 0.030070702 0.08800502 -0.15569063
000190 7f ac 84 bd 16 3c 89 bd fe a3 d8 be 4e 5c 51 3e
       -0.064782135 -0.067009136 -0.42312616 0.20445368
0001a0 52 80 23 be 7b ee ed 3d f2 3b ff 3d ff 05 d1 3e
       -0.15966919 0.11617752 0.124626055 0.40824887
0001b0 2c 81 04 3d 9d 20 1f be 5b dd f7 3d 7b 5c 60 3e
       0.03234975 -0.15539785 0.12102767 0.21910278
0001c0 3e d7 30 bd 4c e7 18 3e 3b e6 34 3e dd 23 53 3b
       -0.04317402 0.14931983 0.17665951 0.003221742
0001d0 7c 99 7a 3e 6c 8a 0b 3e 73 88 56 3e 09 b5 85 3d
       0.24472612 0.13627023 0.20950489 0.0652867
0001e0 90 16 11 3e a4 58 5e bd 4b 23 52 be 80 04 03 3e
       0.14168763 -0.054283753 -0.20521276 0.12794685
0001f0 72 06 d7 bd 38 c5 76 bd cb 9a ed 3d 96 0d 25 3f
       -0.10499276 -0.060246676 0.1160179 0.64473855
000200 89 b6 8f 3d dd a0 a3 3e ba 3b 0e 3f e6 06 23 3e
       0.07017238 0.31958666 0.55559886 0.159206
000210 e7 8d 85 bd f7 d6 8a be 08 d0 16 3d f0 0e f6 be
       -0.06521206 -0.2711713 0.036819488 -0.4805827
000220 c2 1e a2 bd e4 d9 c7 3e f5 c6 cb 3d dc 43 b3 be
       -0.07916023 0.39033425 0.099500574 -0.3501271
000230 6a fc ac 3d 66 e0 5f be 73 20 ac bd a6 69 12 bf
       0.08446582 -0.21862945 -0.08404627 -0.57192457
000240 45 94 d3 be 9a 03 d4 3e c2 fa 93 be 9f ba 89 bd
       -0.41324058 0.41408998 -0.2890225 -0.06725048
000250 8d 54 2a bd 63 48 3c 3e 06 ca 95 3d ac bc 92 be
       -0.04158454 0.18386988 0.073139235 -0.2865957
000260 8c 8f 43 bd 49 18 da bd 9c e3 ff be cb 9a 79 3d
       -0.04774432 -0.10649163 -0.4997834 0.060938638
000270 7d 8c 64 3e ca 01 42 3d eb d7 82 3e d2 fa 17 be
       0.22319217 0.047364987 0.25555357 -0.14841774
000280 cc 44 86 3e 6c be 64 3e b1 30 15 3e 4b 5c bd bd
       0.26224363 0.22338265 0.14569356 -0.09246119
000290 32 64 5c bd c6 fa 59 bd e3 30 72 bd 39 c0 7b be
       -0.05380649 -0.05321767 -0.059128653 -0.24585046
0002a0 1e ef 9f 3d 92 de 3f be 82 f0 c5 3c 03 42 3e bd
       0.0780928 -0.18737248 0.024162535 -0.046449672
0002b0 d3 14 e2 bc 36 95 9c 3e 66 01 b4 be ba 4e 1a be
       -0.02759782 0.3058259 -0.35157317 -0.15069094
0002c0 75 3d 3b bd 1d 9f 08 be 13 2a 90 3d 78 dc 5c 3e
       -0.045712907 -0.13341947 0.07039275 0.21568477
0002d0 78 af f6 bd b2 02 70 bd 01 4f 82 bd 2a 8f 4f be
       -0.12045187 -0.05859632 -0.06362725 -0.20269457
0002e0 1b 40 30 be b5 80 26 3d 23 0a 22 be 60 b5 fb 3b
       -0.17211954 0.04065009 -0.1582418 0.0076815337
0002f0 08 57 83 be a8 13 15 3c e0 12 4e be cd bd 7a bd
       -0.25652337 0.009098925 -0.20124388 -0.061216164
000300 77 07 36 bd dd 09 8a bd 1d 1a 53 3d 35 9a e4 bc
       -0.044440713 -0.067401625 0.051538575 -0.027905563
000310 73 9d 10 bf de 66 96 3b 78 c7 46 3e 3b 98 87 3e
       -0.5649025 0.0045898994 0.19412029 0.2648333
000320 4b 61 95 bc 03 89 86 bc 41 ee 89 be e5 26 ee 3d
       -0.01823487 -0.016422754 -0.26939586 0.11628512
000330 c4 7e 11 3c f3 c0 51 bd df 40 40 be a3 22 07 3e
       0.008880321 -0.0512094 -0.18774746 0.13196807
000340 06 44 b0 bb f3 6f 5d be 3b a9 30 be b2 e7 d1 3d
       -0.005379203 -0.21624736 -0.17252056 0.102492705
000350 19 85 03 3e 8d 4f dd 3d f3 de 89 3e 85 6f e7 3d
       0.12843741 0.10806189 0.2692791 0.113005675
000360 d7 39 6b bd 6c f2 73 be 86 c1 5c bd db ff 9b be
       -0.057428207 -0.23822945 -0.053895496 -0.3046864
000370 d8 6b 4b 3e c5 1b 9c 3e bf 41 0c 3e 5b 09 93 bd
       0.19865358 0.30489936 0.13696955 -0.07179519
000380 26 f4 26 be d9 32 c1 bc 24 6a 19 be 48 40 ca 3d
       -0.16304073 -0.023583816 -0.14981896 0.09875542
000390 13 20 04 3f d6 ff 96 bd 4b c6 bb 3e af de f6 3d
       0.5161144 -0.073730156 0.36674723 0.12054192
0003a0 45 63 05 be b5 b5 88 be 4e 8c 52 be 12 1e 0f 3d
       -0.1302615 -0.2670113 -0.20561334 0.034940787
0003b0 bd fd 20 3d a6 f1 00 be aa 3a c5 3d 03 eb 2a be
       0.039304484 -0.12592182 0.0963033 -0.16691212
0003c0 83 6b 40 3d a5 79 5b 3e a4 e1 41 be 98 41 10 3e
       0.04697753 0.21433122 -0.18933731 0.14087522
0003d0 67 6b 34 be b8 d8 bb bd b9 4a 99 3d 30 5b 59 3d
       -0.17619096 -0.09172195 0.07484955 0.05306548
0003e0 57 08 25 be 69 72 03 be aa d2 ad 3d 57 bc a1 bd
       -0.16116463 -0.12836613 0.084874466 -0.07897251
0003f0 e0 77 d9 be e8 fb 70 3e 6d 98 5e 3d cf 72 86 3e
       -0.4247427 0.23533595 0.054344583 0.26259467

gru.weight_hh_l0 f4 [96, 32]
000000 be 8c e9 be 05 7a 0f be 78 79 79 3d e4 93 f5 3c
       -0.4561519 -0.1401139 0.060906857 0.029977746
000010 05 7d cd bd 5b 0c 35 bd 71 93 0e 3e b5 e1 23 be
       -0.10033611 -0.044201236 0.13923432 -0.16004069
000020 15 74 72 3d 2f b0 d8 be f5 a0 74 be 3c 87 bf 3d
       0.059192736 -0.42321917 -0.23889525 0.09351966
000030 0e 22 f8 bd c2 c0 5b bd 59 25 5c 3e e0 27 4b be
       -0.121158704 -0.053650625 0.21498622 -0.1983943
000040 43 a8 b9 bd b0 f4 d1 3d 6f 81 92 be 77 22 66 be
       -0.090652965 0.102517486 -0.28614375 -0.22474085
000050 e6 47 fd 3d 51 5b 83 be 63 b7 6d 3e c9 59 85 bd
       0.12367229 -0.25655606 0.23214488 -0.06511266
000060 7c 8d 9b 3d 92 d0 ba bd a3 79 8b be 59 52 44 3e
       0.075953454 -0.09121813 -0.2724124 0.19172038
000070 54 4a 2b be 9d 4d 55 be db 19 8e 3d 66 28 ac 3e
       -0.16727573 -0.20830388 0.06938525 0.33624572
000080 3e b8 b1 be b5 f0 08 be d7 4c af 3d 0a e1 af be
       -0.34710878 -0.13373072 0.08559578 -0.3435138
000090 f2 d2 93 3c 69 35 9e bd 7c 7c 22 3c 05 3b 7c 3d
       0.018044923 -0.07725031 0.009917375 0.061579723
0000a0 41 b0 d5 3e 33 2d 8d be 6f 44 c1 be 61 6c 53 3d
       0.41736034 -0.27573547 -0.37747523 0.05161703
0000b0 a1 8a e0 3d ff 41 9c be a6 8a 64 3e af 6c 69 be
       0.10963941 -0.305191 0.22318515 -0.22795366
0000c0 2e ee ea be c7 a2 ee 3e 6f 8e 68 be cf 2e c0 be
       -0.45884842 0.46608564 -0.22710584 -0.37535712
0000d0 38 1b e9 3d 4a 30 6e be 5c 6e 1b 3e 32 70 80 3d
       0.11382145 -0.23260608 0.15178818 0.062713996
0000e0 6e 2b 94 3c b5 ff 4b be 93 39 e8 be 2d 33 c5 3d
       0.018087115 -0.19921763 -0.45356426 0.09628902
0000f0 e2 2c 54 bd 1c 63 1d be 5c e0 0e 3d 19 f4 97 3d
       -0.051800616 -0.15369838 0.034881935 0.07419605
000100 77 47 8a be 15 b3 cf be f7 27 68 3e 5e e4 20 3d
       -0.27007648 -0.40566316 0.22671495 0.039280288
000110 5c 69 d0 bd a5 ef 24 be 0c a8 6d be 1c d2 0e 3e
       -0.10176346 -0.16107042 -0.23208636 0.13947338
000120 60 26 19 bc ae a0 b1 be 7e 25 c7 3c 64 da 55 bd
       -0.009347528 -0.346929 0.02430987 -0.052210227
000130 e6 6f c9 3c b4 9e 1f 3c ad 42 ca 3d d4 ad 37 3d
       0.02458949 0.009742428 0.09875999 0.04484351
000140 07 68 71 bd be 27 f8 bd 4e b5 8f 3c f3 84 93 bd
       -0.0589371 -0.12116955 0.017542507 -0.072030924
000150 99 05 3f 3e a1 f8 41 be 1f 2c bb 3e 46 e9 4e be
       0.18654479 -0.189425 0.365571 -0.20206174
000160 40 a9 aa 3d 47 07 e2 3d b3 ba f6 bb ed 40 8f 3e
       0.08333063 0.11036544 -0.0075295805 0.27979222
000170 ed 9b 18 3e 20 e3 d3 3c a8 80 2d bb 85 04 43 3e
       0.14903231 0.025865138 -0.002647439 0.19044693
000180 32 02 2c be e4 2f 3c be 59 56 1b 3e c6 38 4e 3e
       -0.16797712 -0.18377644 0.15169658 0.20138845
000190 52 3e 58 bd 5c 81 32 3d f5 e0 29 be 05 a2 e0 bd
       -0.05279381 0.043580398 -0.1658972 -0.10968403
0001a0 5d 2e 12 be 9f 51 80 be 01 50 9c 3d 0b a3 b1 be
       -0.14275499 -0.25062272 0.07632447 -0.34694704
0001b0 c5 47 c9 bd ff 0e 2e 3d 9e 04 fd 3d f9 10 1c be
       -0.09828142 0.04249477 0.12354396 -0.1524085
0001c0 bd 86 c9 bd fa f0 fc 3d 55 46 36 bd 03 29 a4 3d
       -0.098401524 0.1235065 -0.044500668 0.08015635
0001d0 fd 45 1d 3e 43 54 4a be d0 36 06 3e 53 d4 52 be
       0.1535873 -0.19758706 0.13106847 -0.20588808
0001e0 bd 98 2d be ff a3 80 3e 49 bf 92 3d d8 4c 01 3e
       -0.16952796 0.2512512 0.07165391 0.1262697
0001f0 2f ba 1c be 8c 24 f1 bd aa 48 60 be a4 a4 3c 3e
       -0.15305398 -0.11774549 -0.21902719 0.1842218
000200 d1 7a 67 be 22 e3 91 be c1 1c 9b 3d 4f 6a f9 bc
       -0.22605444 -0.284936 0.07573844 -0.0304462
000210 2b cb 81 bd 86 a2 76 ba c1 14 cd 3d 09 c7 f1 3c
       -0.06337579 -0.0009408373 0.10013724 0.029513853
000220 c5 f8 da 3d 98 3d 83 bd 28 f0 c2 bd d4 31 9e 3d
       0.1069198 -0.064082325 -0.095184624 0.07724348
000230 3f 39 08 3e 9d bc 30 3e f3 94 6b bd ee e0 06 be
       0.13303088 0.1725945 -0.057515096 -0.13171741
000240 91 8c ab bd b4 3e 06 3d 9f 37 87 bd e5 12 29 3c
       -0.0837642 0.032774642 -0.06602406 0.010319446
000250 fa 51 c9 bc 9d 4f 44 be 23 69 fa 3d 24 ce 02 3e
       -0.024575222 -0.19170995 0.122270845 0.12773949
000260 ef 95 22 bd 15 6b 44 3e 43 02 c4 3c e8 01 ec bc
       -0.03969377 0.19181474 0.02392686 -0.028809503
000270 b9 be 26 3e fb 8c 22 bd d4 03 72 bc ff 45 a1 3c
       0.16283692 -0.03968523 -0.0147714205 0.019686697
000280 8b 74 0f bd 46 90 79 bd 4d 45 12 3d 4b a2 70 bd
       -0.035023253 -0.060928605 0.03571062 -0.058748525
000290 4a 53 c0 bb d4 ac 8b bb 55 f1 84 3c 00 55 23 3e
       -0.005869304 -0.004262546 0.016228357 0.15950394
0002a0 ee 47 9e 3d ad 2e 08 3e fe af 57 3d 9d f0 72 3e
       0.07728563 0.13299055 0.052658074 0.23724599
0002b0 4e cb dd 3c d6 3b 48 be 30 e7 a2 bd 19 4b 34 be
       0.027074482 -0.19554076 -0.07954252 -0.17606772
0002c0 c3 55 0d be c8 52 38 3e 06 bb 0e bd 43 39 bf 3d
       -0.13802247 0.18000329 -0.03484633 0.09337094
0002d0 b1 99 18 be 04 00 c5 bd 16 04 29 3c 28 f5 65 3d
       -0.14902379 -0.096191436 0.010315916 0.056142002
0002e0 7b a7 19 3e 65 00 a1 3d e4 bf d6 3d 89 38 a7 3d
       0.15005295 0.078614034 0.10485819 0.0816508
0002f0 91 ac bb bc ca ae 8c 3d 7d 74 10 3d 8e 62 8a bd
       -0.022909435 0.06869276 0.035267342 -0.06757079
000300 a0 8f cb 3d 7f 21 70 3c 65 6e ff ba c4 9e 15 3e
       0.09939504 0.014656424 -0.0019487856 0.14611346
000310 f3 3f bc bc f0 26 39 3e f1 33 47 be fc 4a 23 be
       -0.022979712 0.1808126 -0.19453408 -0.15946573
000320 a9 3a 0a 3d a4 1f 9e 3d d4 35 21 3e 4d ab 97 be
       0.03374735 0.07720879 0.1574319 -0.2962288
000330 10 02 06 bd 2f a2 c4 3d 80 a5 82 3d d0 5d 90 3d
       -0.03271681 0.096012466 0.06379223 0.07049143
000340 eb bd 78 3e 2e 92 81 bd b5 91 44 bd c4 cc 2c 3e
       0.24291198 -0.0632671 -0.04799052 0.16874987
000350 d8 7b f8 bd 69 cd e1 3d bc dc c4 3d 08 a7 b7 bd
       -0.12132996 0.11025507 0.09612414 -0.089674056
000360 2f d7 c4 bd db d8 2e 3e 9a 20 01 3d 04 e7 f5 3d
       -0.096113555 0.17074911 0.031525232 0.12006953
000370 20 0d 97 3d 87 c4 85 bd 28 b0 d1 bd cf 27 c9 bd
       0.0737555 -0.06531625 -0.10238677 -0.09822046
000380 f0 58 a8 3b 57 04 bb bd 2d 7a 17 bc e5 26 4c 3d
       0.0051375553 -0.09131687 -0.009245438 0.04984178
000390 0b 10 85 be c5 15 8b 3d 5e 05 6e be 6c 6f 43 3e
       -0.25988802 0.067912616 -0.23244235 0.19085473
0003a0 39 95 5f bd a9 b2 1c be 76 c9 38 3e 92 f3 04 3d
       -0.05458567 -0.15302528 0.18045601 0.03245885
0003b0 4a c0 72 3e 27 15 0f be a6 23 34 be 33 ee cd 3d
       0.23706165 -0.13972913 -0.17591724 0.100551985
0003c0 db 70 b1 3d 84 dc 07 be e4 c8 5f 3e 06 22 b4 bd
       0.086641036 -0.13267714 0.21853977 -0.08795552
0003d0 b7 09 75 3e e4 a1 8c be 21 27 e2 3c e7 54 06 3e
       0.23929487 -0.27467263 0.027606549 0.13118325
0003e0 49 d6 ae 3c 60 7e b1 bd c3 8e 3c bc 32 95 15 3e
       0.021342413 -0.08666682 -0.011508646 0.14607695
0003f0 00 2e eb 3d 68 01 85 bc a2 74 33 3e 20 d4 4a 3e
       0.11483383 -0.016236022 0.1752496 0.19807482

gru.bias_ih_l0 f4 [96]
000000 d1 09 db 3d d9 94 11 bd b1 51 04 3e ed 5b 12 3d
       0.10695232 -0.035542343 0.12921788 0.0357322
000010 f9 2d 48 3e b9 a8 d0 bd 03 8a a4 bd e7 c1 8f 3e
       0.19548787 -0.10188431 -0.08034136 0.28077623
000020 45 0d ef 3d 5f 6a fe 3c 7e 71 c2 3d 02 01 2d 3e
       0.11672453 0.031056581 0.09494303 0.16894916
000030 4f f8 af 3b de a4 0b be 28 a8 d4 bd 27 f1 46 3e
       0.005370177 -0.1363711 -0.10383636 0.1942793
000040 b8 d7 a4 bc 0d f6 3f be 30 b6 9b bc 3c a6 55 be
       -0.020122394 -0.18746205 -0.019007772 -0.20864195
000050 c0 40 8a 3c c3 81 a0 3d 6e ee 8b bd 38 1d 40 3e
       0.016876578 0.0783725 -0.06832586 0.18761146
000060 60 3f 9a bd 34 b2 68 3d cb 3e b5 3c 17 03 d6 3d
       -0.07531619 0.056810573 0.022124669 0.10449808
000070 57 64 2b 3c a9 eb 32 3e 25 2f ff 3c 25 0c 36 3e
       0.010460935 0.1747271 0.03115041 0.1777807
000080 dd 2b b8 be ca 51 93 be 68 de 4c be fa a7 86 bd
       -0.35970965 -0.28773338 -0.20006716 -0.06575008
000090 3c 52 a0 bd e0 f3 99 be bc ba 70 bb 40 a3 7b be
       -0.07828185 -0.30068874 -0.0036732396 -0.24573994
0000a0 7d 1b 26 bd dd 86 b6 be 1e a8 87 be 6e 31 15 be
       -0.04055356 -0.35649768 -0.2649545 -0.14569637
0000b0 38 8c 7c be 63 a8 b9 bd a2 76 5b be 64 91 7f be
       -0.24662864 -0.0906532 -0.21431974 -0.24957806
0000c0 0f e3 d6 bd 0c ba 8a 3d 93 8a a0 be e2 20 18 be
       -0.10492527 0.06773767 -0.31355724 -0.14856294
0000d0 3f 81 9c be 1c 0b 12 be 1c b9 d5 be 2b 1d ae 3d
       -0.30567357 -0.1426205 -0.4174279 0.08501657
0000e0 ad fb 7c be 27 50 2e 3d 29 27 cd be 59 c4 b3 be
       -0.24705382 0.042556908 -0.4006894 -0.3511074
0000f0 31 38 64 bd 0e 2c f9 bd 5c 69 f4 bd af 25 48 be
       -0.05571765 -0.12166606 -0.11934158 -0.19545625
000100 43 75 fd bd ed c4 42 3d 81 d1 81 3d 4d 65 0f be
       -0.123758815 0.047551084 0.06338788 -0.14003487
000110 4d d7 88 bd 9c c5 21 be 79 29 de bc d4 bd 3b 3e
       -0.0668169 -0.15798038 -0.027119385 0.18334132
000120 45 6d e3 3d 17 9e 07 be a0 db 81 3b 86 89 52 3d
       0.11104826 -0.132439 0.003962949 0.051400684
000130 a8 ad 15 3e 78 cc 9f 3d d5 d2 d5 3d 01 8b 4b 3c
       0.14617026 0.07802671 0.10440604 0.012423278
000140 53 58 41 be 2f 48 fe 3d 0c ca d4 3c ad 7c 86 bd
       -0.1888135 0.12416112 0.02597525 -0.06566749
000150 c5 fe 23 3e bb ec 32 be 1c 8a ad 3d 7a 11 67 3c
       0.16015156 -0.17473118 0.08473608 0.014103288
000160 d3 8a 12 3d e0 5d aa 3d f8 aa c5 3d 1d 10 f0 bc
       0.035776924 0.083186865 0.0965175 -0.029304558
000170 e7 5e dd bc ba 47 e7 bd 19 3a 17 3e ae 40 98 3d
       -0.027022792 -0.11292978 0.14768256 0.07434212

gru.bias_hh_l0 f4 [96]
000000 44 e2 ad bd 5a cf 92 bd 8a 6e 21 bd 8a 85 0e be
       -0.08490422 -0.071684554 -0.03941206 -0.13918129
000010 c4 2f ee 3d ac bb 96 bd 01 bd 18 be 3a ab d1 3d
       0.11630204 -0.07360014 -0.1491585 0.10237737
000020 5b 55 84 bd 30 f1 df 3b b0 35 33 3d 9b b9 c1 3d
       -0.06461593 0.0068341717 0.043752372 0.094592296
000030 22 46 fd 3d 76 77 d7 3d e3 ca 1c 3d 08 f6 d9 3d
       0.123668924 0.10520832 0.038279425 0.1064263
000040 30 70 d6 3c 83 0f 14 be ba 6c 13 be 9e ba 16 be
       0.026176542 -0.14459042 -0.14396945 -0.14719626
000050 e5 bb fd 3c 6b 0a da 3d 6e 6b fd bd 90 fc 2e 3e
       0.030973384 0.10646518 -0.12374006 0.17088532
000060 b6 28 95 3c 1e f2 4d 3d f4 b3 ab bd f0 6a a7 3d
       0.018207889 0.05027973 -0.08383933 0.081746936
000070 06 33 ba 3d cb 39 3f bd 35 0b ca bc 52 87 06 3e
       0.09091763 -0.046685975 -0.024663547 0.13137558
000080 1c cc 20 be 6b 76 b0 be 98 8f 01 be b5 56 81 bd
       -0.15702862 -0.34465346 -0.12652433 -0.06315366
000090 66 8a 76 3b ea 5a 99 be 3c f2 89 3b bc a3 57 bd
       0.0037619113 -0.29952174 0.004209785 -0.052646384
0000a0 46 66 12 be 4b e2 b9 be 64 94 e0 bd 14 d0 d1 3c
       -0.14296827 -0.3630546 -0.10965803 0.025611915
0000b0 13 89 8d be bf 5c c8 3d bc dd 56 be 1c 59 86 be
       -0.27643642 0.09783315 -0.20983022 -0.2623986
0000c0 b8 b6 ce 3b c8 78 64 3d 11 d0 77 be af c8 36 be
       0.006308403 0.05577925 -0.24200465 -0.17849992
0000d0 d7 d3 82 be e8 00 b4 bd c2 7e 9b be 03 0a 65 3d
       -0.25552246 -0.08789235 -0.30370146 0.05591775
0000e0 5d f5 55 3c 01 9e ba 3c b6 3d ea bd 93 ce e1 be
       0.013058987 0.02278042 -0.11437552 -0.44102916
0000f0 68 6c 3d be 58 d3 45 be 09 f2 85 be ba 31 a1 be
       -0.18498385 -0.19318902 -0.2616122 -0.3148325
000100 ec b3 b6 3d 7a 36 46 be f8 fa dd 3c 90 cc 08 3e
       0.08921036 -0.19356719 0.02709721 0.13359284
000110 b5 9a 1a bd 24 ce 30 be 1d ea 17 be 3e 73 d7 3c
       -0.037745196 -0.17266136 -0.14835401 0.026300069
000120 c6 bd 48 3e 50 3b 93 bd bb 36 c2 3d e4 5e 59 3e
       0.19603643 -0.07189047 0.09483095 0.21227604
000130 c4 92 bf 3d 0e 17 0d be 13 e9 f1 3d 66 c3 41 be
       0.09354165 -0.13778326 0.118120335 -0.18922195
000140 ca e8 f6 bd 94 53 c9 bd 83 1f fb bd b9 a6 bd 3d
       -0.1205612 -0.098303944 -0.1226187 0.092603154
000150 22 3d 17 3e 1a 93 58 be d6 4d dd bd a4 54 05 3e
       0.14769414 -0.21149865 -0.10805862 0.13020569
000160 39 1e f4 3b a6 9f 24 be 7e 32 14 be 08 8e 04 3e
       0.007449892 -0.16076526 -0.14472386 0.12944806
000170 4d ca 62 bc 42 1a f4 bd 67 13 ab 3b 6a b4 44 bd
       -0.013842178 -0.11919071 0.005220819 -0.04802362

fc.weight f4 [1, 32]
000000 24 47 a1 3e 7a dc be 3e f9 13 a5 3e 4d 63 a2 3e
       0.31499588 0.37277585 0.322418 0.31716385
000010 ca c5 58 bd 82 66 a5 3e 9b 1e 8f bd 00 d3 bd 3c
       -0.052923 0.3230477 -0.069882594 0.023171902
000020 6b 1a 6a be 4e 21 e2 3e 8b be 8e 3e 34 56 22 be
       -0.2286164 0.44166034 0.27879748 -0.15853196
000030 2d c4 15 3e 00 82 31 3e da e6 97 be 63 6a 5f 3e
       0.14625616 0.17334747 -0.29668313 0.21817927
000040 fe d6 ad 3d 53 3b d0 bd 74 2e b5 3e 4d c5 51 3e
       0.08488272 -0.10167565 0.35387003 0.2048542
000050 04 ce 83 be 71 05 b2 3e 65 33 cf be c8 47 25 be
       -0.25743115 0.34769776 -0.40468898 -0.16140664
000060 59 35 97 be ae a1 48 3e f1 55 55 3e d7 8d d7 be
       -0.2953289 0.19592926 0.20833565 -0.42100403
000070 f0 66 92 3e c6 78 67 3e 09 a5 a6 be 4c a7 45 be
       0.2859416 0.22604665 -0.32547787 -0.193021
