project/best_grusb_model_K7.pth (torch, 21733 bytes, 5 tensors)

gru.weight_ih_l0 f4 [96, 14]
000000 96 9e 09 be d9 40 21 3e 19 88 62 3e 43 f2 99 3e
       -0.13439402 0.15747394 0.2212223 0.30067644
000010 e4 88 74 3e fb 27 91 3e f5 bd 4b 3d 16 a9 ab 3d
       0.23880345 0.28350815 0.049741704 0.0838186
000020 21 70 62 bd e3 52 0f be d9 25 80 bc 7e bb d2 3e
       -0.055282716 -0.13996463 -0.015643047 0.4115867
000030 c1 30 1b bd 13 72 0b be d6 dc 3a 3e 20 a0 51 3d
       -0.037888292 -0.13617735 0.18248305 0.051178098
000040 4d 9e e3 bd 24 aa b9 bd de 83 74 be b9 cc 4a 3e
       -0.11114178 -0.09065655 -0.23878428 0.19804658
000050 99 3c 63 be ee ba 08 3e f6 a1 f8 bd 0f 9a 0d bc
       -0.22191085 0.13352558 -0.121402666 -0.008642687
000060 57 c4 f8 bc 47 e7 d4 bd 19 29 7b bd 3b a0 e9 bd
       -0.03036706 -0.10395675 -0.06131849 -0.11407515
000070 2f 4e 3d 3d dd c3 8f 3e c6 cb e6 3d 8e 91 c8 3e
       0.04621714 0.2807912 0.112693354 0.3917355
000080 e4 7f 2a 3e 7f 23 2d be 70 8c 18 3d 58 54 dc bd
       0.16650349 -0.16908072 0.037243307 -0.10758275
000090 e7 07 2d 3e 24 70 8a be cf 51 f3 3c 94 78 ce 3e
       0.16897546 -0.27038682 0.029702095 0.4032637
0000a0 05 fe 04 bd d3 6c 57 be 13 15 70 bd af 8f bf 3d
       -0.032468814 -0.21037607 -0.058613848 0.09353577
0000b0 e7 a3 a8 3e 7d d5 ff 3d 96 60 97 3d c8 6d 57 bc
       0.32937548 0.124918915 0.07391469 -0.0131487325
0000c0 aa cf 8a 3e 48 0d 2a be 04 3a 12 3e 61 7c 57 be
       0.2711156 -0.16606629 0.14279944 -0.2104354
0000d0 8e 1c 54 3e dd 48 8a 3d 16 2e 3f 3e 2a 84 30 be
       0.20714018 0.06752179 0.18669924 -0.17237917
0000e0 75 27 87 be de 1f 79 3e df eb 36 3e ff 81 a4 3e
       -0.2639729 0.24328563 0.17863415 0.3213043
0000f0 fc 90 bc 3e 07 1d f8 3d dd b9 92 3d ad a7 87 3d
       0.36829364 0.121149115 0.07164357 0.066237785
000100 33 4d 45 3e fd 50 23 be d2 b8 1f bc 1f 92 23 3d
       0.1926773 -0.15948863 -0.009748654 0.039934274
000110 27 37 44 bd ad de 0e 3c 9b c6 44 be 35 f7 55 3e
       -0.04790416 0.008720082 -0.19216387 0.20895083
000120 31 33 2f 3d 1e bb 60 3d 80 a0 3b bd 01 58 99 3e
       0.04277343 0.05486595 -0.04580736 0.29949954
000130 08 2f 92 bd 63 96 d7 bd 0c ba 8f bd bc 2f 85 3d
       -0.07137877 -0.10526731 -0.070179075 0.06503245
000140 25 ae 4c 3e 4b 14 ec 3d a9 07 56 3e 6d eb 61 be
       0.19988306 0.11527308 0.2090136 -0.22062464
000150 92 15 1d bd 25 b8 a6 3c 2d 79 7f 3c 50 c0 45 3e
       -0.03835065 0.020351479 0.015592855 0.19311643
000160 4d 7c 3c be 0c 0f 4d 3e bb 8d 9b be 76 67 ac bd
       -0.18406792 0.20025271 -0.3038157 -0.08418171
000170 e9 bb ea bd ca 31 03 be 3d b5 f7 3d 1a 8b 21 3c
       -0.11461622 -0.12811962 0.12095115 0.009859825
000180 aa 62 ae bd 0a 27 68 bd aa fe 9a bd 25 b8 b3 3d
       -0.085149124 -0.056677856 -0.075681046 0.08775357
000190 3a 03 ca bd e7 98 98 3e e6 5d be bd 7a 7c 42 3e
       -0.09863897 0.29804155 -0.092952535 0.18992797
0001a0 3c a8 88 be a3 c5 00 3e b4 12 d1 3d 11 a3 b8 bd
       -0.26690853 0.12575392 0.102086455 -0.090154774
0001b0 47 83 9e 3d 7f 47 0f 3e f9 2e 5a 3b 3d 13 de bd
       0.07739883 0.13992117 0.0033292158 -0.10843513
0001c0 46 31 d0 3e 3e 81 23 bd 78 02 82 be a6 cd 0b be
       0.40662593 -0.039918177 -0.25392509 -0.13652667
0001d0 20 85 e9 bd 90 b9 53 3e 78 26 e1 3d a0 04 aa bd
       -0.11402345 0.20676255 0.109936655 -0.083016634
0001e0 c9 6a 2a 3d 6b 04 10 3c ce ee 9c 3b 02 e0 ad 3e
       0.041605745 0.008790116 0.00478921 0.33959967
0001f0 94 e8 c7 bd 77 75 64 3d 6b 94 8f bd 82 94 78 3e
       -0.09761158 0.055776086 -0.0701073 0.24275401
000200 3c ba 82 3e 90 a6 1a 3e 4b c5 f1 3e 1e 70 9c bc
       0.2553271 0.15102601 0.47220835 -0.01909643
000210 04 7f 80 3d d5 94 2a be 9a 1e d6 3d b7 85 9a bd
       0.06274226 -0.16658337 0.104550555 -0.07545035
000220 58 ba 1a 3d 2b 0a 9c 3e 63 4c 79 3d 77 b3 59 bd
       0.037775367 0.30476508 0.060863864 -0.053149667
000230 39 87 1f bd c3 cc 2c be 79 c2 48 be cb 04 2d bc
       -0.038947318 -0.16874985 -0.19605435 -0.010560225
000240 c7 88 8a 3d 9d 99 bf 3d 3d 88 3e be 71 ba 8e 3e
       0.067643695 0.09355471 -0.18606658 0.27876619
000250 a4 71 b8 3d c4 8d 9d 3e de 86 8f bb 70 4e 5a be
       0.0900605 0.3077222 -0.004380091 -0.21318984
000260 1a 69 29 3e 1a e1 73 3e 07 43 63 3e 9c fb 9f 3e
       0.16544 0.23816338 0.22193538 0.3124665
000270 83 24 85 3e 55 f1 9b 3e bf 26 50 3e 56 fe 2b bd
       0.2600442 0.3045756 0.2032728 -0.0419906
000280 82 64 1c 3e 69 66 2d be e9 37 2b 3e ef 64 3b be
       0.15272716 -0.16933598 0.16720547 -0.18300222
000290 94 2b e3 3d d3 fe f6 3e 78 32 20 be ee 19 55 bc
       0.11092296 0.4824129 -0.15644252 -0.01300667
0002a0 3f 3c 2e be 28 51 8c be b4 50 50 be 9f cb 83 bd
       -0.1701517 -0.27405667 -0.20343286 -0.06435322
0002b0 fc 80 f6 be 5b f0 8c 3e c1 c4 b2 bd d0 51 28 bd
       -0.48145282 0.27527127 -0.08728934 -0.041093647
0002c0 df f9 46 be 3f 04 2c 3e 90 46 34 3e 21 36 eb bc
       -0.19431256 0.16798495 0.17605042 -0.028712334
0002d0 b2 40 6f 3d 9e 2c 16 3e 80 80 49 bc 2b bc 63 3e
       0.058411308 0.14665458 -0.012298703 0.22239749
0002e0 69 b2 19 be ad 1e 63 bd 46 5d f8 bd d3 e1 bf 3e
       -0.15009464 -0.055449177 -0.121271655 0.37476978
0002f0 b4 32 e4 bd 89 4e 0e be 74 41 16 be c0 6d 2f be
       -0.11142483 -0.13897146 -0.14673406 -0.1713171
000300 47 b9 47 bd 7e ae 7d 3e 9c 28 0a 3d 76 47 44 bd
       -0.04876068 0.24773595 0.033730134 -0.047919713
000310 7a fb 46 3d 18 51 0c 3c 00 42 05 3e ee a6 09 3e
       0.04857967 0.008564256 0.13013458 0.13442585
000320 e2 4d 97 bd 6a c1 79 3e 16 e0 7f bd 9c 38 8d 3d
       -0.07387902 0.24390188 -0.062469564 0.06895563
000330 58 97 6f 3e 92 1d 28 be 55 2d a4 bd 0a dd 44 3d
       0.23397577 -0.1641753 -0.08016459 0.04806236
000340 ad d0 8a 3d 82 bf 0a bd fa 6f 78 3d f7 63 eb bd
       0.06778083 -0.033874042 0.060653664 -0.11493676
000350 5f 36 38 be 36 99 29 be 90 c3 a6 be 89 56 f7 3d
       -0.17989491 -0.16562352 -0.32571077 0.12077052
000360 dc af 43 be da c2 1b 3e 76 af 81 be ca fe 8a 3e
       -0.19110054 0.15211049 -0.2532918 0.27147514
000370 cc 4f f9 3c fa f9 07 be 4e 39 dd 3b f3 7f e2 bc
       0.030433558 -0.13278952 0.006751216 -0.027648902
000380 bc ad ef bc b7 22 95 bd a4 09 ef 3d a9 ab ae bd
       -0.029257648 -0.07282012 0.11671761 -0.08528835
000390 b1 7d aa be 02 ce 65 3e c6 62 4d be 3a 1c 7d 3d
       -0.3329902 0.22441867 -0.2005721 0.061794497
0003a0 e7 32 05 bd 20 97 ea bd 8f 8a b0 bb 0b 58 ac 3e
       -0.032519247 -0.11454606 -0.005387611 0.3366092
0003b0 ee 56 05 be a7 62 92 bd 6b 9e 02 be d0 f5 45 3e
       -0.13021442 -0.07147723 -0.12755744 0.19332051
0003c0 9f 45 af 3d 2b 25 bb 3d db 67 e1 be 4e e2 d8 3d
       0.08558201 0.091379486 -0.44024548 0.10590039
0003d0 48 aa 9f be b0 83 3c be b8 fc 10 be 79 21 0b bd
       -0.31184602 -0.1840961 -0.14158905 -0.03396747
0003e0 f9 ed 8b bd 29 d9 85 3e c2 d6 09 3e 60 c6 34 be
       -0.06832499 0.26142243 0.1346083 -0.17653799
0003f0 21 67 52 be 1f 2b 70 3e 2f b9 ec 3d e8 ad 6b 3e
       -0.20547153 0.2345395 0.115587585 0.23015559

gru.weight_hh_l0 f4 [96, 32]
000000 ff ae 05 be 11 a2 b1 bc b5 8f e7 3d 7f b0 9c bd
       -0.13055037 -0.021683725 0.11306707 -0.076508515
000010 1d 9f 4d bb d7 ad 9e bd fb e6 da bc a3 98 b0 bc
       -0.0031375356 -0.07748001 -0.026721468 -0.021557158
000020 4a 9b 5d 3d ff db 46 be c4 e3 0a bd 99 56 cd 3d
       0.054103173 -0.1941986 -0.03390862 0.10026283
000030 a8 dc cd 3d b2 3f 0c be a8 b2 9b bd 74 02 1a 3d
       0.100518525 -0.13696173 -0.07602435 0.037599996
000040 eb 64 58 3c 6b e1 3d bd 55 84 5e be f4 a3 b8 bc
       0.0132076545 -0.046357553 -0.21730168 -0.022539116
000050 40 2b 0f 3e 6d e5 85 be 74 ed 4d 3e 2c 1f 49 bd
       0.13981342 -0.261516 0.20110112 -0.049101993
000060 b5 89 dc bd 27 07 73 bd 3a dc 19 3d 3d 15 92 bd
       -0.10768453 -0.059332993 0.03756354 -0.07132957
000070 43 49 2d 3d 98 4d 55 be ee ee a5 3c 5b 78 42 bd
       0.042306196 -0.20830381 0.020255532 -0.04747806
000080 d5 ad 0c 3d 3d 59 78 bd ee 19 a7 bd 1a 99 1f 3d
       0.034345467 -0.06063198 -0.081592426 0.03896437
000090 b9 1a 9e bd 50 7a b6 3d 07 0b 0c be 44 ce 01 3e
       -0.07719941 0.08910048 -0.13676082 0.1267634
0000a0 78 42 00 bc a1 a7 1b 3e 4e 1a 89 bd 30 a9 40 3e
       -0.007828347 0.15200664 -0.0669447 0.1881454
0000b0 d7 2d 58 3d fd f2 51 3b ae a5 30 be b5 a8 79 bd
       0.05277809 0.0032035701 -0.17250702 -0.060951907
0000c0 eb 23 09 bd bf 8c 02 be 7d 1d de 3d 40 45 42 3e
       -0.03348152 -0.12749003 0.10845468 0.1897173
0000d0 ce 65 63 bd ea 73 60 3e eb a1 e5 3a ff 0a 4a 3e
       -0.05551701 0.21919218 0.0017519569 0.19730757
0000e0 f7 97 a1 bc 33 66 9e bd 69 ce 07 be 73 91 af 3c
       -0.019725783 -0.07734337 -0.13262333 0.02143166
0000f0 df c6 22 be 8a a8 86 bd d9 3b 15 be 11 39 dd bd
       -0.15896176 -0.06575115 -0.14573611 -0.108019
000100 57 41 64 be e8 d0 bf 3d a5 21 fb bd c1 1c 2b 3e
       -0.2229055 0.093660176 -0.122622766 0.16710187
000110 6a e4 58 be d4 47 ab bd df 0f 64 3d 64 8f 34 3c
       -0.21180883 -0.083633095 0.0556792 0.011020515
000120 07 47 66 3d 20 f7 0f be 61 ca fa bc fe 5c 94 bc
       0.05622008 -0.14059114 -0.03061408 -0.018110748
000130 21 d8 f6 3d 84 18 2d bd 44 1d 06 bd 5e 5e 55 bc
       0.12052942 -0.042259708 -0.032742754 -0.013022987
000140 2f b1 b4 bd 9b 98 68 3e 00 98 9f 3b f6 60 e0 bc
       -0.088228576 0.22714464 0.0048704147 -0.027389985
000150 bc 37 34 3c d1 09 04 be c2 69 3d 3e 9b ae 46 3d
       0.010999616 -0.1289437 0.18497375 0.04850636
000160 a2 be 50 bd 1c 5f d3 3b 6d d7 f9 bd 7c 61 6a 3e
       -0.05096305 0.006450547 -0.12199292 0.2288875
000170 d0 97 1b 3c aa 0a 08 be 51 0a 8f 3d 2d f2 8e bc
       0.009496644 -0.13285318 0.069843896 -0.017449463
000180 b7 39 7f 3c 4e 4f 9a 3d b4 0b 6f 3d 9f 44 c5 bd
       0.015577725 0.075346574 0.05836077 -0.09632229
000190 5a 91 54 be a1 81 34 3c 87 e7 2c 3d fa 86 72 3c
       -0.20758572 0.011017234 0.04221299 0.014802689
0001a0 12 7c bd 3d de 5f 01 be ba 1d 75 3e 42 32 8d 3b
       0.0925218 -0.12634227 0.23937121 0.0043089697
0001b0 fa 47 2e 3e aa e0 1c 3d 90 9e e0 bd d1 c8 0a 3e
       0.17019644 0.038300194 -0.109677434 0.13553168
0001c0 5d e0 23 3e ad b2 62 3e cf 3a 84 bc 33 29 98 bd
       0.16003557 0.22138472 -0.016141323 -0.07429733
0001d0 15 80 da 3c ae 73 ef bd 2d c7 2a 3d c5 3d 09 be
       0.026672402 -0.11691986 0.041693855 -0.1340247
0001e0 dd c9 b5 bd 09 b0 29 be 22 b5 97 bd e2 92 cb 3d
       -0.08876393 -0.16571058 -0.07407595 0.09940125
0001f0 b5 16 03 be dc 37 09 3e b9 b1 d9 3d 5c 6f 4e be
       -0.12801631 0.13400215 0.10629601 -0.20159668
000200 61 3c 2e be 75 c2 aa 3c 80 c2 57 3e 83 8c 5a be
       -0.1701522 0.020844677 0.2107029 -0.21342663
000210 ae b1 27 3d ce 17 19 3d f5 6a da bb 5e fc a7 bd
       0.040940933 0.037376218 -0.0066655823 -0.08202432
000220 65 47 5e be 17 67 9a 3c f5 5b ae bc 54 86 42 bd
       -0.21706922 0.018847985 -0.021284083 -0.047491387
000230 9e 5a b7 3c 24 9b 1c 3d e3 3d 37 3e 92 13 6e 3e
       0.022382077 0.03823389 0.17894702 0.23249653
000240 92 74 45 3e b2 e1 29 be 8e fe 1a be 53 bd 5b bb
       0.1928275 -0.16590002 -0.15136167 -0.0033529594
000250 72 ab 9e bd 1e 81 d5 3c b2 1e 93 bc cc 15 77 be
       -0.07747544 0.026062544 -0.017958973 -0.24129409
000260 35 93 ff bd 59 7d 43 3e 6d 79 0f 3d ff 89 4c be
       -0.124792494 0.19090785 0.03502791 -0.19974516
000270 b0 4d d3 3c f9 28 2c be a0 71 1c be 28 dc 67 be
       0.02579388 -0.16812505 -0.1527772 -0.22642577
000280 3e ec b4 bd 13 a8 cf 3d 7e 79 44 3e c6 92 d9 3d
       -0.08834122 0.101394795 0.1918697 0.10623698
000290 22 5e 98 be 00 20 2c 3a 8b 2b 9c bd ad cc b4 bc
       -0.29759318 0.00065660477 -0.07625493 -0.022070253
0002a0 80 c4 91 bd 81 c1 c4 bd 1a cd 74 be 75 17 32 3e
       -0.071175575 -0.096072204 -0.23906365 0.1739176
0002b0 fd 91 36 3c 4f 6c 27 be de 49 3a be 0b ed ba 3d
       0.011143205 -0.1634991 -0.1819224 0.091272436
0002c0 d3 08 d7 ba f9 7e f4 bc 82 18 a3 3d 89 60 d2 3d
       -0.0016405828 -0.029845702 0.07963659 0.10272319
0002d0 5d 99 0b 3e 50 61 77 bc 19 a0 92 3e 75 34 76 bc
       0.13632722 -0.015098885 0.2863777 -0.015027155
0002e0 49 bd 83 bc 45 23 6a 3e d3 7e 23 be 12 c7 1a be
       -0.01608147 0.22865017 -0.15966348 -0.15115002
0002f0 2e 61 da 3d 1a e9 ff bc 5b 7b 69 be 48 39 87 bd
       0.10663067 -0.031239081 -0.22800963 -0.066027224
000300 48 5f 9f bc 65 ec af bd 1c df 9e 3b 81 37 a8 3c
       -0.019454613 -0.085900106 0.004848374 0.020534279
000310 a9 26 8e bd 95 b4 4d be 5b 9b 21 be 2f 8d 0d be
       -0.069409676 -0.20088418 -0.1578192 -0.13823389
000320 f2 c1 2f be c5 35 e1 bd c1 b6 09 bd 33 9a 86 3e
       -0.17163828 -0.10996584 -0.033621553 0.2628952
000330 e5 99 79 bd 59 2e 05 3e e2 84 78 3d f7 50 3c be
       -0.06093778 0.13005961 0.060673602 -0.1839026
000340 ed 10 f9 3c f9 16 bc 3d 24 9d a2 bd 0e ed 3a 3d
       0.030403579 0.09184069 -0.079401284 0.04563623
000350 33 23 a3 bd 01 09 fc bd ec c4 f6 3d 78 45 f6 3d
       -0.07965698 -0.12306405 0.120492786 0.12024969
000360 36 37 1b 3e 7d a2 3b 3e 7c b9 32 3d 32 a0 11 bd
       0.1515778 0.18323703 0.043633923 -0.035553165
000370 08 ab 06 bd dd c6 01 bd 68 ff 2e be f5 83 fb bd
       -0.03287795 -0.03168379 -0.17089617 -0.12281028
000380 3d 4c 20 3e a2 30 8d 3b a0 4c 02 bd 79 97 4a 3d
       0.15654083 0.004308776 -0.031811357 0.04946086
000390 b8 f7 06 3d 0a 60 e3 bd b3 ac 3e be 9e 7d 53 bd
       0.032951087 -0.11102302 -0.18620567 -0.05163347
0003a0 6a 4a 2f be d9 b5 36 3d 55 0d 84 bd cb 25 6a 3e
       -0.1711823 0.044607017 -0.064478554 0.2286598
0003b0 8e ff 50 3e e5 f0 29 3e c7 80 61 3d 72 06 f6 3d
       0.20409986 0.165958 0.055054452 0.12012948
0003c0 b7 69 5e 3e 06 b4 fb 3d 20 5a 33 3d 12 30 33 3e
       0.21720015 0.12290196 0.04378712 0.17498806
0003d0 c9 58 e8 bd 82 5c 43 be 38 cd 96 3d 56 12 92 bd
       -0.113450594 -0.19078258 0.07363361 -0.071324036
0003e0 83 93 76 bc 8e 09 22 3e 2f d6 3f bb 86 07 09 be
       -0.015049818 0.15823957 -0.002927195 -0.13381776
0003f0 5e c0 28 3d 9a 11 1c bd d3 6e bb 3d 1c 6d 40 bb
       0.04119908 -0.038102724 0.091519974 -0.002936191

gru.bias_ih_l0 f4 [96]
000000 15 39 0e 3e d7 52 8d 3d ec 66 f6 3d ae 8c 11 3e
       0.13888963 0.06900566 0.120313495 0.14213821
000010 6e b5 81 3e 32 df ce 3c 6f 88 d1 bd cc 91 9e 3b
       0.25333732 0.025252912 -0.10231101 0.0048391577
000020 8f fb 2d 3e 44 e5 0a 3e 46 46 e0 3c 53 f1 f1 bd
       0.16990493 0.1356402 0.027377259 -0.11813607
000030 8a 82 7e bd 7d bd 22 3e 85 56 82 3e 63 b7 c2 3d
       -0.06213621 0.15892597 0.25456634 0.095076345
000040 a3 85 72 3d 94 1f 3b 3e da c6 11 3e 54 a9 7e bd
       0.059209477 0.18273765 0.14236012 -0.062173203
000050 d3 b3 64 3d 00 fe ad bd 2c aa b2 3d 17 46 36 bc
       0.055835556 -0.08495712 0.08723864 -0.011125109
000060 a9 50 0d be a9 2e ca 3d bc 12 42 3e 01 e2 52 bd
       -0.138003 0.09872181 0.18952459 -0.051485065
000070 bd 73 11 be bb 72 ae 3d 2f fe b0 bd 42 d6 7f bc
       -0.14204307 0.08517977 -0.08642232 -0.015615048
000080 64 99 c0 be b4 a2 11 3c 77 79 8b be ca ec 53 be
       -0.37617028 0.008888889 -0.27241108 -0.20695797
000090 68 62 ba 3d 16 b4 a5 be 1a 07 2d be 5b 31 4e 3d
       0.09100801 -0.32363957 -0.1689724 0.050340038
0000a0 a3 ab b9 be e8 da 4a bd b4 0f 97 be 3a be ca be
       -0.3626376 -0.04952517 -0.29504168 -0.39598256
0000b0 75 6b c2 bd 62 f7 d7 be 5b fd 3f bd 42 2a 6e be
       -0.09493152 -0.42180926 -0.046872478 -0.23258308
0000c0 a0 f6 04 be 45 ca 4c be 1f ae 24 be 72 ac ee bd
       -0.12984705 -0.19999035 -0.16082047 -0.11653985
0000d0 b7 3e 82 be 1d f6 f1 3d d9 d3 b6 be 48 7d 03 be
       -0.25438473 0.118145205 -0.35708502 -0.1284076
0000e0 59 d9 a0 be 0c c4 c2 be 2c 22 2a be 60 50 3a be
       -0.31415823 -0.38040197 -0.16614598 -0.18194723
0000f0 43 eb 00 3d f5 76 ba be 27 ae 96 be 83 98 91 bc
       0.031474363 -0.36418882 -0.29429743 -0.017772919
000100 1c 9e 56 3d 9e 13 a6 bc 8e cc 00 3e 49 24 df 3d
       0.05239688 -0.020273026 0.12578031 0.10895593
000110 60 92 30 3c 43 01 74 bd 4c 3d f9 bd e9 3f 8d 3d
       0.010777086 -0.059571516 -0.121698946 0.068969555
000120 f7 0e 6a 3d 80 dc a0 3c 3f e3 f6 3c de 50 08 3d
       0.057143178 0.019636393 0.030137656 0.033280246
000130 bf bd 17 3e 23 22 6b 3d 92 6e 1a 3c 99 eb 36 3d
       0.14818476 0.057405602 0.009425776 0.044658277
000140 d2 34 09 3e 1a cc 28 bb 62 e4 a6 bd 84 e2 0c be
       0.13399056 -0.002575642 -0.08149029 -0.13758284
000150 16 1e 5c bc 2d fc 39 be a4 9e 35 3e 8a ae 23 3e
       -0.013434907 -0.18162604 0.17736298 0.1598455
000160 10 c2 48 bd 44 3a 5b ba 98 40 7c bc 65 0a 68 3d
       -0.049013197 -0.0008362869 -0.01539626 0.056650538
000170 b3 e0 0f 3e 6a ac d8 bd 4a 94 21 3e 27 ee 1b be
       0.1405056 -0.105797604 0.15779224 -0.15227567

gru.bias_hh_l0 f4 [96]
000000 28 a9 df 3d 5a 26 ad bb c2 e2 64 bc ab 83 f9 3d
       0.10920936 -0.005284113 -0.013970079 0.12183317
000010 4c ee 39 3e 79 79 8d 3e 03 72 d4 3b 7f 45 dc bc
       0.1815731 0.2763174 0.006483318 -0.026888607
000020 50 f6 fe bd dc d7 16 3d 1a 65 cb 3c 91 28 ec bd
       -0.12449324 0.036826953 0.024828482 -0.11531175
000030 e3 99 35 3e 64 9a 12 bc 4b 6c 62 3e a7 71 6f 3e
       0.17734484 -0.008947942 0.22111623 0.23383199
000040 af ce 55 bd d8 b0 72 3d 8d 9d 13 bd 2d 5a 07 be
       -0.052199062 0.059250683 -0.036038924 -0.13217993
000050 ca 0a cb bd f5 97 11 3d c1 7f 1a bd 60 cf b7 3c
       -0.09914167 0.03554531 -0.037719492 0.022437751
000060 1a b6 d0 3c 79 f5 0e 3e 0f 72 bc bb 7d f9 e5 bd
       0.025477458 0.13960828 -0.0057509015 -0.11229227
000070 aa 45 02 3e b2 58 40 3e f6 5c c5 3d f4 b3 25 3e
       0.12721887 0.18783835 0.096368715 0.16181928
000080 e7 9f bf be 9c 7a 8b be 96 ea cb bd 03 77 45 be
       -0.37426683 -0.2724198 -0.09956853 -0.1928368
000090 3b 6d 83 bd ed 64 a7 be 56 39 4e bd 10 26 78 bd
       -0.064173184 -0.32694188 -0.05034765 -0.060583174
0000a0 02 de b4 be e3 23 79 bd 4d 7e 88 be 6d 51 f1 bd
       -0.3532563 -0.06082524 -0.2665886 -0.11783109
0000b0 7f 4b 7b 3c ba 64 30 be bd d4 05 be f0 f7 82 3c
       0.015337824 -0.17225924 -0.13069434 0.015987366
0000c0 2f 2a cd bc 40 b8 cf bc c8 22 bf ba d7 c7 7f be
       -0.025044529 -0.025356412 -0.0014582509 -0.24978577
0000d0 17 86 7b be 97 42 ec bc 5f 4a cb bd e3 16 2a bd
       -0.2456287 -0.028840346 -0.099262945 -0.041525733
0000e0 74 3d d7 be 10 26 1e be 55 fd 2d bd 9b f5 ab be
       -0.42039073 -0.15444207 -0.042477924 -0.3358582
0000f0 30 74 04 3c 4d 80 bb be 4a 2f 41 be d8 e8 54 bd
       0.008084342 -0.36621323 -0.18865696 -0.05197987
000100 60 17 f7 bd ac b1 1b 3e 18 94 30 3e 2c db 2f be
       -0.12065005 0.15204495 0.17243993 -0.17173451
000110 0b 76 df bd 79 50 f5 3d c7 2f 9b 3d 39 9e 19 be
       -0.10911187 0.119782396 0.07577472 -0.15001763
000120 27 71 fc bd 6b ec 47 be c7 68 4c 3d 4a f2 ba 3c
       -0.123262696 -0.1952378 0.04990461 0.02282061
000130 61 6b 5d bd 89 01 0e 3b 3f 05 23 bd da b9 21 3d
       -0.054057483 0.0021668395 -0.039799925 0.039483882
000140 5f 58 22 be 3c e0 2a 3e 1b 1d 3b be 59 fc 78 3d
       -0.15854023 0.16687101 -0.18272822 0.060787532
000150 77 ae 15 3e 01 1d fe 3c fa d4 28 be 04 35 0a be
       0.14617334 0.03101969 -0.16487494 -0.13496786
000160 d6 63 6f bc 07 49 3d 3e 4a 73 0e 3c d3 fd 0e be
       -0.014611205 0.18484889 0.008694479 -0.13964014
000170 ee d2 e8 bb 96 91 96 bd 7a 7e fb bc 7f ca 36 be
       -0.007105223 -0.07351987 -0.030699957 -0.17850684

fc.weight f4 [1, 32]
000000 a0 c7 92 3e b2 05 87 3e e7 ff 67 be bd b9 21 3e
       0.28667927 0.26371533 -0.22656213 0.1579351
000010 c1 82 8d 3e 4c f9 aa be 24 e3 9b 3e 5d 36 3e 3e
       0.2763882 -0.33393323 0.30446732 0.18575425
000020 42 96 78 3e 33 75 96 3e ca 26 31 3e bc 36 b7 be
       0.24276069 0.2938629 0.17299953 -0.35783947
000030 89 ee 86 be dd d9 ec 3e 1d 64 95 3e 18 07 87 3d
       -0.26353863 0.46259966 0.29177943 0.0659315
000040 53 bf 7c 3d 3d 85 29 be e3 bf 3f 3e 27 4c a0 be
       0.0617059 -0.16554733 0.18725543 -0.313081
000050 d3 8f 07 be 15 fb ba 3d f2 0a b3 be 82 69 53 be
       -0.13238458 0.09129921 -0.34969288 -0.20645717
000060 ca 8e e3 3e 5d bc a1 3e c6 5e 4f 3e 95 ed 74 be
       0.44444877 0.31589022 0.20250997 -0.23918755
000070 57 f9 71 bd 85 cb b5 3e 03 33 9f 3e f8 ae c7 3d
       -0.05907568 0.35506836 0.31093606 0.097501695
