project/best_grusb_model_K0.pth (torch, 21733 bytes, 5 tensors)

gru.weight_ih_l0 f4 [96, 14]
0.10662375 0.14276716 0.11660114 0.39791238 0.62693644 -0.02142238 0.25655264 0.06955772
-0.10073895 -0.15694422 0.116785906 0.59268904 0.017400319 -0.41763595 -0.12224078 0.2364663
0.2770837 0.19283658 0.28153637 -0.13430825 0.24994527 -0.17970312 0.13740028 -0.29026002
-0.047388192 0.52039653 0.02559587 -0.17422803 -0.16633536 -0.19071712 -0.17547433 -0.47540432
-0.32431915 0.16562283 -0.23649557 -0.03843161 -0.009788488 0.02269275 -0.114228964 -0.28539813
-0.1419282 0.3320791 -0.038546707 -0.123858675 -0.11100926 -0.409478 -0.41411904 0.018300982
-0.34862372 -0.05408431 0.054908548 0.3693329 0.0016375791 -0.26650196 -0.012499137 0.31104666
0.093189925 -0.14600721 -0.1645664 -0.3663134 -0.4149061 0.08586629 -0.18415397 0.096885994
-0.104814634 -0.0018375139 0.17361383 -0.23397224 -0.21959311 0.05315002 -0.044692602 0.14781272
0.3463332 0.41352868 0.39224088 -0.15382184 0.28134 -0.01550072 0.16571291 -0.35441884
-0.041018143 0.40509868 0.06513754 -0.32042757 0.014514552 -0.3951511 -0.10093 -0.17502855
-0.35931042 0.20834652 -0.10771745 0.0089763785 -0.026614998 0.2514114 0.060188703 -0.4456969
-0.14945282 0.1429009 -0.17278303 -0.145416 -0.06866376 0.03616808 0.3502783 -0.05675177
0.13161698 -0.017910352 -0.00096368004 0.06026692 -0.0665271 0.26579243 -0.015908673 -0.17047894
-0.08296963 0.42876118 0.18385278 0.3236664 0.57624763 0.049591366 0.21991839 -0.06491849
0.19836771 -0.29995093 -0.070046395 0.31933543 0.086363286 -0.3168806 -0.024294034 -0.36316186
-0.31998798 -0.18556772 -0.3551564 0.08704071 -0.11706801 0.133616 -0.107137114 0.29875657
0.063706405 -0.2043429 -0.14282534 0.3266066 -0.15775996 0.17209667 0.07776774 0.34181622
0.51110476 0.11162377 0.20276026 -0.052922036 0.09854972 -0.26747096 -0.011651893 0.6799603
-0.032687914 -0.44190824 0.07757601 0.37650746 0.07196027 0.3016696 0.55292994 -0.053949997
0.36174715 -0.12555237 0.06770871 -0.26983526 0.061407786 0.5790644 -0.04531345 -0.081613705
0.013306012 -0.050881736 -0.1866528 -0.25713217 -0.38204655 0.20717983 -0.2799717 0.08173012
-0.20581804 0.26303118 -0.0061329724 -0.34678385 -0.03912865 0.04977434 0.07103522 0.13793732
0.18114075 0.34383735 0.4998406 0.0068842745 0.04270903 -0.10473977 0.13304701 -0.042292945
-0.19726329 0.6466703 0.198238 -0.20476496 0.1377368 -0.26322544 -0.3288715 -0.21386237
-0.15566371 -0.10843589 -0.052607533 -0.10113184 -0.23253341 0.25071242 -0.10818675 -0.21977584
-0.06835501 0.06191105 -0.036146887 0.27930024 0.21800685 0.29359263 0.353125 0.026867786
0.18129447 0.053542122 0.105022825 -0.14284208 0.03319363 0.48406547 0.19419983 -0.3250039
0.04371709 0.2997545 0.14263827 0.30221486 0.4723388 -0.061673693 0.035251338 -0.14707625
0.07598795 -0.10880593 0.006746841 0.52404726 0.18271643 -0.14795047 0.035359077 -0.16837296
-0.0357702 -0.11630284 -0.32068327 -0.09871373 -0.10867726 0.07069722 -0.023659512 0.021778468
-0.10280067 -0.24216004 0.0048864274 0.1297841 -0.014791774 -0.4034189 -0.32082647 -0.4937011
00000000: 8d5d da3d 8e31 123e 94cc ee3d 2cbb cb3e
00000010: e87e 203f fd7d afbc de5a 833e 4774 8e3d
00000020: 3950 cebd fcb5 20be 732d ef3d 78ba 173f
00000030: 1d8b 8e3c 61d4 d5be 6059 fabd 3924 723e
00000040: eadd 8d3e f476 453e 8925 903e 1a88 09be
00000050: a7f1 7f3e 1804 38be a9b2 0c3e f69c 94be
00000060: 1f1a 42bd b538 053f 6eae d13c d568 32be
00000070: d153 2abe 594b 43be 8baf 33be 3268 f3be
00000080: 290d a6be 0899 293e e52b 72be 776a 1dbd
00000090: e55f 20bc 25e6 b93c e0f0 e9bd b41f 92be
000000a0: a055 11be 4606 aa3e 27e3 1dbd 9ea9 fdbd
000000b0: d358 e3bd 1aa7 d1be 6907 d4be f1eb 953c
000000c0: cf7e b2be 8287 5dbd c9e7 603d 3419 bd3e
000000d0: 09a4 d63a f272 88be 2ec9 4cbc 8241 9f3e
000000e0: 5cda be3d ea82 15be 1884 28be 6e8d bbbe
000000f0: 936e d4be aada af3d dc92 3cbe 2a6c c63d
00000100: 0ea9 d6bd bcd8 f0ba d3c7 313e 6b96 6fbe
00000110: 04dd 60be d6b3 593d 970f 37bd 385c 173e
00000120: 9652 b13e 08ba d33e ccd3 c83e 7983 1dbe
00000130: cc0b 903e bbf6 7dbc a5b0 293e 6376 b5be
00000140: a402 28bd 1869 cf3e d566 853d 150f a4be
00000150: 72ce 6d3c 3f51 cabe 63b4 cebd af3a 33be
00000160: 89f7 b7be ca58 553e f79a dcbd a911 133c
00000170: b207 dabc ffb8 803e 6e88 763d 6232 e4be
00000180: 290a 19be 9d54 123e 09ee 30be efe7 14be
00000190: 969f 8cbd fb24 143d ad57 b33e 8b74 68bd
000001a0: 9ac6 063e bbb8 92bc 799f 7cba 72da 763d
000001b0: 5c3f 88bd f215 883e e852 82bc 0892 2ebe
000001c0: fbeb a9bd 9686 db3e e743 3c3e 9ab7 a53e
000001d0: f784 133f 5120 4b3d 4932 613e fcf3 84bd
000001e0: e820 4b3e 2b93 99be 7c74 8fbd ef7f a33e
000001f0: 3cdf b03d 2d3e a2be 4804 c7bc 5af0 b9be
00000200: 77d5 a3be 7705 3ebe 0fd7 b5be 6642 b23d
00000210: 5ac1 efbd a2d2 083e b46a dbbd 9ff6 983e
00000220: 8178 823d 443f 51be ce40 12be fb38 a73e
00000230: d48b 21be 1c3a 303e b144 9f3d 8902 af3e
00000240: c3d7 023f 019b e43d 63a0 4f3e c7c4 58bd
00000250: 70d4 c93d f4f1 88be 95e7 3ebc e111 2e3f
00000260: c3e3 05bd cc41 e2be 2ce0 9e3d 96c5 c03e
00000270: e85f 933d 7074 9a3e d18c 0d3f acfa 5cbd
00000280: ec36 b93e cd90 00be ddaa 8a3d d927 8abe
00000290: bb86 7b3d 913d 143f 999a 39bd 1625 a7bd
000002a0: 7601 5a3c 5e69 50bd e921 3fbe d4a6 83be
000002b0: 9b9b c3be f326 543e 7358 8fbe 1f62 a73d
000002c0: f7c1 52be 06ac 863e 1af7 c8bb a78d b1be
000002d0: 5d45 20bd 2ee0 4b3d ea7a 913d 713f 0d3e
000002e0: f67c 393e 730b b03e 1beb ff3e 7b95 e13b
000002f0: aaef 2e3d ce81 d6bd 7a3d 083e 5e3b 2dbd
00000300: 63ff 49be 2f8c 253f e7fe 4a3e e8ad 51be
00000310: e00a 0d3e 7cc5 86be d861 a8be bdfe 5abe
00000320: 4f66 1fbe a313 debd ff7a 57bd 361e cfbd
00000330: 3d1d 6ebe 615d 803e 0491 ddbd eb0c 61be
00000340: b6fd 8bbd 7196 7d3d c20e 14bd 7100 8f3e
00000350: 303d 5f3e c651 963e cdcc b43e d519 dc3c
00000360: 42a5 393e fc4e 5b3d 3516 d73d 3245 12be
00000370: 0bf6 073d 6ed7 f73e 52dc 463e e966 a6be
00000380: b110 333d 6c79 993e c40f 123e e8bb 9a3e
00000390: 64d6 f13e 8e9d 7cbd b563 103d 289b 16be
000003a0: 929f 9b3d a5d5 debd 9b14 dd3b f627 063f
000003b0: 041a 3b3e 5480 17be aed4 103d f669 2cbe
000003c0: c683 12bd 2f30 eebd 9930 a4be 6d2a cabd
000003d0: 2f92 debd b4c9 903d 98d1 c1bc c268 b23c
000003e0: 2889 d2bd cdf8 77be 531e a03b 20e6 043e
000003f0: 3259 72bc ec8c cebe 5e43 a4be 64c6 fcbe

gru.weight_hh_l0 f4 [96, 32]
-0.1349384 0.027577104 0.010001784 0.06617169 -0.050565176 0.015336521 0.16144879 0.08468996
0.081338674 0.08217337 -0.17419586 0.15466921 0.07129401 0.06646105 -0.15120864 -0.1404332
-0.12956451 0.033123672 -0.081218876 -0.118209794 -0.035296593 0.17213292 0.09593722 -0.15148024
0.1258927 -0.0023981556 -0.08648327 0.044655323 0.039399486 0.072083816 0.17465381 0.14740562
-0.00890624 0.011814456 -0.12797926 0.071471 -0.14188805 0.013541909 -0.12932098 -0.13865688
-0.0876575 -0.16001032 -0.0702699 0.016580297 0.14841911 0.1151485 -0.14071397 0.066159695
-0.13085547 -0.0019075031 0.1730878 -0.121907204 0.08764496 0.11479723 -0.09167749 -0.08904124
-0.09475303 0.06488973 -0.054182786 0.10275265 0.12810688 0.028178075 0.17301168 0.01392397
-0.029918067 0.02760747 -0.013603127 -0.1499254 0.06673814 -0.06140901 -0.12199905 -0.10618654
0.114500485 0.15689643 0.038084608 0.13463075 -0.10935149 -0.05574005 -0.02192694 -0.0913597
-0.06977718 0.14797463 0.038289737 0.13212828 0.08637261 0.0050185304 0.111000866 -0.081909135
0.10605833 -0.05026673 0.14605527 -0.052561797 0.12702109 -0.14022633 -0.098052114 0.06517995
0.12493204 0.08837522 -0.069419675 -0.13681673 0.022603713 -0.12296239 0.037954144 0.1664895
-0.14884806 -0.15632612 0.17188875 0.01279926 0.07945199 -0.043339897 -0.084725045 -0.041084092
0.090318605 -0.12465078 0.13295946 -0.051347822 -0.15995021 -0.12562938 -0.1159314 -0.14189811
0.14552328 -0.06213988 0.12389057 -0.10496255 0.1740847 0.13894221 -0.0015166332 0.093801245
-0.010078555 0.023990935 0.07183494 0.05398908 0.11774997 -0.13820699 0.091918394 -0.10393674
0.15708707 0.052929338 0.16267718 0.04969204 0.1343911 -0.05284772 -0.05147719 0.17286189
0.17565899 0.06503697 0.025481246 -0.12735043 -0.004819134 0.084796086 -0.0951568 0.15265158
-0.030226497 0.01133687 0.072564796 0.16583018 0.10991919 0.13122551 -0.111779846 -0.07125533
-0.17313245 0.0714486 -0.037581626 0.052504793 0.14935236 0.05417185 -0.0745481 -0.12561075
0.12019895 0.004965594 0.059353363 0.024607183 0.083096474 -0.14750324 -0.15172505 -0.15428616
0.096563146 -0.05225676 0.05815051 -0.132333 0.04100726 -0.11900955 0.0137380175 -0.088246584
0.10052923 0.059512656 -0.07025068 -0.08958616 0.13100617 -0.021321226 -0.014255919 0.0343336
0.09676838 0.1460438 0.0010028 0.094276786 0.0086416425 0.15982221 0.10007331 0.073616885
-0.03924217 0.17503169 -0.017038347 -0.17116348 0.037236318 -0.13083354 -0.087124385 0.119858555
-0.13613889 0.12765004 0.1318355 0.11268917 0.120687835 -0.10452402 0.07809457 -0.025887901
0.050107967 0.054047767 0.037950266 -0.10623952 0.17590123 -0.15871921 0.16546364 0.16751665
0.02805056 0.13010663 0.072415404 -0.06176625 0.0884337 -0.046962675 0.099751055 -0.018818673
-0.0651043 0.13008288 0.093243666 -0.09939793 -0.071176775 -0.068270035 -0.0566135 0.08977816
0.078897655 0.082784414 -0.025651183 -0.028987633 0.09696234 0.14808683 0.056179494 -0.079447985
0.09368359 0.022802161 -0.14706801 0.005782337 -0.15288095 0.0068381787 0.16463983 -0.015408761
00000000: 4b2d 0abe 61e9 e13c 86de 233c 0685 873d
00000010: 6e1d 4fbd 0846 7b3c d552 253e ee71 ad3d
00000020: e494 a63d 834a a83d 6660 32be 9b61 1e3e
00000030: 9802 923d bb1c 883d 70d6 1abe b9cd 0fbe
00000040: 8fac 04be b0ac 073d 1556 a6bd fa17 f2bd
00000050: 2993 10bd 9d43 303e bc7a c43d a31d 1bbe
00000060: 04ea 003e 602a 1dbb 241e b1bd 80e8 363d
00000070: 5b61 213d aea0 933d 73d8 323e 80f1 163e
00000080: 7aeb 11bc 6c91 413c ff0c 03be 635f 923d
00000090: 1a4b 11be e2de 5d3c b86c 04be 12fc 0dbe
000000a0: c685 b3bd bfd9 23be aae9 8fbd 67d3 873c
000000b0: 2efb 173e fad2 eb3d 5317 10be bc7e 873d
000000c0: fafe 05be 2f05 faba ee3d 313e 7caa f9bd
000000d0: 337f b33d cf1a eb3d 68c1 bbbd 415b b6bd
000000e0: e00d c2bd e8e4 843d c5ee 5dbd fb6f d23d
000000f0: 732e 033e b5d5 e63c f929 313e 5d21 643c
00000100: bc16 f5bc 1029 e23c a6df 5ebc 0b86 19be
00000110: 02ae 883d 0488 7bbd a3da f9bd 5478 d9bd
00000120: 3b7f ea3d 75a9 203e 9bfe 1b3d a5dc 093e
00000130: adf3 dfbd ae4f 64bd 20a0 b3bc cb1a bbbd
00000140: 57e7 8ebd a986 173e b3d5 1c3d a34c 073e
00000150: 1fe4 b03d 7c72 a43b 6c54 e33d fabf a7bd
00000160: 1c35 d93d 7de4 4dbd 838f 153e 0a4b 57bd
00000170: d111 023e 7e97 0fbe 8ccf c8bd 117d 853d
00000180: 5fdc ff3d 11fe b43d e72b 8ebd af19 0cbe
00000190: 6c2b b93c b5d3 fbbd ce75 1b3d 397c 2a3e
000001a0: a06b 18be f413 20be 9b03 303e fdb3 513c
000001b0: bab7 a23d 2d85 31bd 5384 adbd cb47 28bd
000001c0: f6f8 b83d e848 ffbd 8626 083e 1852 52bd
000001d0: fdc9 23be fda4 00be 716d edbd bd4d 11be
000001e0: 0e04 153e 6386 7ebd 57ba fd3d 9bf6 d6bd
000001f0: 4243 323e de46 0e3e c4c9 c6ba de1a c03d
00000200: 8620 25bc a388 c43c 321e 933d a723 5d3d
00000210: e526 f13d 2286 0dbe b63f bc3d c9dc d4bd
00000220: 6fdb 203e 6fcc 583d d994 263e e189 4b3d
00000230: d29d 093e da76 58bd bfd9 52bd b502 313e
00000240: f3df 333e 1a32 853d 0cbe d03c 2768 02be
00000250: d3e9 9dbb 92a9 ad3d 91e1 c2bd b250 1c3e
00000260: 8f9d f7bc 47be 393c da9c 943d 63cf 293e
00000270: 501d e13d fb5f 063e d5ec e4bd 51ee 91bd
00000280: a249 31be a553 923d 31ef 19bd 440f 573d
00000290: d3ef 183e 4de3 5d3d adac 98bd 1ba0 00be
000002a0: de2a f63d 6cb6 a23b 831c 733d 0195 c93c
000002b0: 7c2e aa3d 170b 17be d05d 1bbe 31fd 1dbe
000002c0: e6c2 c53d 2f0b 56bd 3b2f 6e3d 4d82 07be
000002d0: 3bf7 273d 47bb f3bd 6c15 613c a0ba b4bd
000002e0: 45e2 cd3d 8bc3 733d 97df 8fbd f378 b7bd
000002f0: 7b26 063e daa9 aebc a891 69bc 64a1 0c3d
00000300: 802e c63d 828c 153e 6270 833a 3014 c13d
00000310: ad95 0d3c 6fa8 233e 3cf3 cc3d 73c4 963d
00000320: 66bc 20bd 823b 333e 0194 8bbc 7b45 2fbe
00000330: 1c85 183d 3af9 05be 456e b2bd 6778 f53d
00000340: fe67 0bbe b1b6 023e e3ff 063e 94c9 e63d
00000350: 2f2b f73d b010 d6bd 0cf0 9f3d dd12 d4bc
00000360: 033e 4d3d 3161 5d3d bd71 1b3d 1b94 d9bd
00000370: 741f 343e 4a87 22be 4d6f 293e 7c89 2b3e
00000380: 4aca e53c ac3a 053e 874e 943d 9bfe 7cbd
00000390: ba1c b53d ef5b 40bd 484a cc3d 9e29 9abc
000003a0: 6755 85bd 7234 053e 89f6 be3d 2491 cbbd
000003b0: 21c5 91bd 29d1 8bbd 8fe3 67bd 9ddd b73d
000003c0: 1895 a13d e08a a93d 6e22 d2bc 7977 edbc
000003d0: 3194 c63d 13a4 173e 781c 663d a0b5 a2bd
000003e0: 2fdd bf3d 99cb ba3c ff98 16be c279 bd3b
000003f0: d38c 1cbe cd12 e03b 5897 283e 0775 7cbc

gru.bias_ih_l0 f4 [96]
-0.059577055 0.1870941 -0.12053191 -0.12723482 0.013060522 0.114308365 -0.15687612 0.14260146
0.12576649 -0.18450195 0.10285752 0.15309298 -0.0055875084 -0.101174325 0.084966116 -0.047895413
0.044222556 -0.121058255 0.10945538 0.02981308 -0.13521412 -0.11252401 0.117030784 0.03601218
0.07496306 -0.07708578 -0.011034142 -0.0055674384 -0.07019919 -0.004570968 0.20648524 -0.11889437
-0.1524633 -0.24572691 -0.34945047 -0.22441782 -0.3379091 -0.61140156 0.0021887887 -0.335481
-0.10625281 -0.0003079255 0.0066913227 -0.30156097 -0.018933538 -0.21655343 -0.18547446 0.056408852
-0.46433252 -0.17129509 -0.32479078 -0.22001402 -0.029135654 -0.40965366 -0.19534823 -0.10111663
-0.3621376 -0.20067547 -0.14749229 -0.1454436 -0.1045358 -0.36772367 0.020172313 -0.48811433
0.06743418 0.14430374 0.05392122 -0.17332505 -0.01290494 -0.22330749 0.063812055 0.1403183
0.09843687 -0.09474106 0.15981762 0.03250406 -0.097202666 -0.09306787 0.17770393 -0.10771675
-0.20840381 -0.056255903 -0.1840577 0.15830195 0.1690644 -0.015171313 0.008752037 -0.11446784
0.14291082 0.18184014 -0.03850733 0.027450789 -0.0055541256 0.12881625 -0.17967087 0.18813652
00000000: 1207 74bd 9995 3f3e 6fd9 f6bd d849 02be
00000010: cdfb 553c 811a ea3d 22a4 20be 1e06 123e
00000020: eec8 003e 14ee 3cbe f7a6 d23d 68c4 1c3e
00000030: 6b17 b7bb 7c34 cfbd b702 ae3d fb2d 44bd
00000040: b622 353d 64ed f7bd 242a e03d 8f3a f43c
00000050: 9275 0abe fd72 e6bd d6ad ef3d 8281 133d
00000060: 3c86 993d 26df 9dbd 8cc8 34bc 0f6f b6bb
00000070: 98c4 8fbd 0fc8 95bb de70 533e e47e f3bd
00000080: 571f 1cbe d69f 7bbe 2ceb b2be c9cd 65be
00000090: 6c02 adbe d084 1cbf c871 0f3b 2ac4 abbe
000000a0: 139b d9bd 1071 a1b9 e242 db3b 3366 9abe
000000b0: 821a 9bbc 2fc0 5dbe 04ed 3dbe f80c 673d
000000c0: febc edbe fb67 2fbe fa4a a6be 5b4b 61be
000000d0: e5ad eebc 20be d1be 5e09 48be 3c16 cfbd
000000e0: 196a b9be df7d 4dbe 3808 17be 2bef 14be
000000f0: de16 d6bd 4746 bcbe 6840 a53c 1fea f9be
00000100: ee1a 8a3d 5cc4 133e 7fdc 5c3d 1f7c 31be
00000110: 3e6f 53bc b8aa 64be e5af 823d 9aaf 0f3e
00000120: 4599 c93d 9a07 c2bd 3ba7 233e fa22 053d
00000130: 3112 c7bd 5e9a bebd 05f8 353e 999a dcbd
00000140: cf67 55be 976c 66bd 9f79 3cbe e819 223e
00000150: 381f 2d3e 1991 78bc b464 0f3c 1d6e eabd
00000160: 3757 123e 4d34 3a3e ddb9 1dbd 7ae0 e03c
00000170: 62ff b5bb 68e8 033e a4fb 37be dca6 403e

gru.bias_hh_l0 f4 [96]
0.05623244 -0.04674927 0.05127633 -0.12373813 0.118291155 0.14636916 -0.18280402 0.094823256
0.092200615 0.08032644 0.18412092 0.013379999 0.00276427 -0.042747747 -0.17695586 0.03985591
0.07912147 -0.04912325 -0.1835663 0.094800785 -0.13098048 -0.1842211 0.086131185 0.07201219
0.10350661 -0.12351772 -0.05138518 -0.07107119 0.014436417 0.05764154 0.070786655 0.13413484
-0.310114 -0.27356204 -0.10903785 -0.21979399 -0.28441158 -0.5796928 -0.111621246 -0.3494773
-0.39669707 -0.30085263 -0.06609637 -0.096557975 -0.13800532 -0.48672232 -0.13447389 0.068911724
-0.5289524 -0.06262967 -0.4357621 -0.42950606 -0.08575945 -0.23653989 -0.3096552 -0.17102456
-0.28255817 -0.43155733 -0.21058466 -0.341517 0.095634244 -0.5002594 0.059592925 -0.47524032
-0.131533 0.20939645 -0.10427534 0.12009593 0.078276396 -0.24146946 0.05508661 0.052786473
-0.16125068 0.030629333 0.10921896 -0.16443202 0.09319285 -0.19167171 0.002695374 0.2127957
-0.21030721 0.07716726 0.0490919 0.21212454 -0.0048229033 0.034053724 0.1770987 0.15309884
0.11611204 0.16472186 -0.17891845 -0.02455512 0.09062753 0.065779485 -0.14775194 0.19321012
00000000: fd53 663d 2a7c 3fbd 2107 523d 6b6a fdbd
00000010: a242 f23d cce1 153e fa30 3bbe b232 c23d
00000020: add3 bc3d 3082 a43d 328a 3c3e c937 5b3c
00000030: c128 353b 4318 2fbd eb33 35be f33f 233d
00000040: 700a a23d 7635 49bd cef8 3bbe ea26 c23d
00000050: bf1f 06be 75a4 3cbe 8c65 b03d 217b 933d
00000060: 46fb d33d dcf6 fcbd 4479 52bd c68d 91bd
00000070: b986 6c3c 8919 6c3d 98f8 903d a55a 093e
00000080: 43c7 9ebe 5310 8cbe 3c4f dfbd ad11 61be
00000090: 659e 91be bf66 14bf ae99 e4bd b0ee b2be
000000a0: e11b cbbe 5b09 9abe 895d 87bd 30c0 c5bd
000000b0: 4451 0dbe ab33 f9be 86b3 09be 9721 8d3d
000000c0: 6d69 07bf fc43 80bd 361c dfbe 38e8 dbbe
000000d0: a7a2 afbd 8337 72be 208b 9ebe 1021 2fbe
000000e0: 77ab 90be 15f5 dcbe 81a3 57be 51db aebe
000000f0: e3db c33d 0011 00bf b617 743d b352 f3be
00000100: 96b0 06be 066c 563e 4f8e d5bd dbf4 f53d
00000110: 604f a03d c543 77be 7fa2 613d a136 583d
00000120: e61e 25be 5eea fa3c 31ae df3d de60 28be
00000130: e5db be3d 9745 44be dfa4 303b 1ee7 593e
00000140: c65a 57be de09 9e3d 9714 493d 2d37 593e
00000150: 7209 9ebb eb7b 0b3d 5d59 353e f1c5 1c3e
00000160: 26cc ed3d d9ac 283e 6636 37be d227 c9bc
00000170: ed9a b93d 65b7 863d 494c 17be e0d8 453e

fc.weight f4 [1, 32]
0.24810067 -0.33543685 -0.31358045 0.42242116 0.40882444 0.38036814 0.16473842 -0.31441724
0.21852164 0.2782537 -0.119466215 0.2488242 0.1323303 0.32692832 -0.18757483 -0.1613592
0.53428376 0.20176151 0.4699327 -0.31667805 -0.037428096 0.4201571 -0.38234147 0.32874444
-0.3073465 -0.27260605 0.39697 -0.37462527 0.0071849185 -0.42705685 0.10153707 -0.3439897
00000000: 1a0e 7e3e 61be abbe 9e8d a0be 9647 d83e
00000010: 7051 d13e 9dbf c23e 30b1 283e 4cfb a0be
00000020: 23c4 5f3e 4577 8e3e b4aa f4bd c5cb 7e3e
00000030: 9881 073e 2663 a73e 9e13 40be 593b 25be
00000040: d2c6 083f 929a 4e3e 059b f03e a023 a2be
00000050: 344e 19bd d51e d73e 43c2 c3be 3151 a83e
00000060: 855c 9dbe 0593 8bbe a73f cb3e e2ce bfbe
00000070: 776f eb3b 32a7 dabe abf2 cf3d 6b1f b0be
