project/best_grusb_model_K4.pth (torch, 21733 bytes, 5 tensors)

gru.weight_ih_l0 f4 [96, 14]
00000000: 8266 053d 7fff aabe 073e 04bf c36f e8be
00000010: add4 66be d06a ac3e 85bb 3cbe 3eaa 423e
00000020: d036 16bd 6dc9 d2bd 0247 923d d85e 6b3c
00000030: 93bd 183e 0deb bd3c d9fd 5b3e 5d6e c0bd
00000040: 23e4 5cbd 6be3 05be e1be 04bf 6163 ac3c
00000050: c298 bfbe efca ca3d e7ff a0bc 79bc 7b3d
00000060: 1588 363e 0720 8cbe 73a1 3f3c 023c 233e
00000070: a00e 6fbe 8971 603e 4f7f d8bd 3b09 35bd
00000080: d04b 0cbe 5ee0 ac3e 4e11 83be 13e9 9cbb
00000090: a95e 283d bc8d c4be b3b1 10be 167d 133e
000000a0: f06d 083e f8de a2be 0e7e 03bd 75cc 563d
000000b0: 4538 3cbd 6663 4cbd 9c70 b5be 907f ab3c
000000c0: 867b 1abd f82a 98bd 800d e13d f920 6ebe
000000d0: 337f fbbc 7edb 773d ccb9 c7bc 908f 1fbd
000000e0: 2e12 d9be e0ed e6bc e9a3 f83d 4435 443e
000000f0: 025e b23e 32bd f2bd 951f 853e 8eba 9b3d
00000100: f20e d13d 248e 6abe 052f 20be faca 7a3e
00000110: c89e babd fbc2 b2bd 3bfc f4be 5d69 0e3c
00000120: 6604 e23b 8763 e53b 6104 813b 3cb2 bfbd
00000130: 0546 9d3d f511 9a3d b705 483e e527 adbc
00000140: 547a 263d 89b8 87bd 8c14 4b39 d2a3 5dbd
00000150: 1c50 bcbe 8fac 013e 2bf9 6f3e 1ca3 eb3e
00000160: 591a 063f 8796 1d3e f679 093e 3961 82bd
00000170: c6c8 273d b8ea 94be 7292 b4bd 1da2 913e
00000180: 740d e8bd c43f 86be 062d 7d3e 7bf6 b6bd
00000190: c65c 40be c72a 653e 7916 2ebe 0b09 553e
000001a0: 9eca 3f3c a16c dfbc 9cfe 21be 327b 4f3b
000001b0: 9fb8 c83c 9139 193d 394d 213e e48f eabc
000001c0: 05bb b6be acf8 6dbe f29f ac3d d0b3 b13d
000001d0: 4289 c2be 4753 b23e 7d7d 26be 7551 4d3e
000001e0: 8817 a63d cb9e 22bd fc21 523d 9df4 bf3d
000001f0: c104 e9bd 6bc7 8dbe d713 17be e376 5e3c
00000200: 3c3f 53bd dfd3 3c3e fc25 56be 9226 f63d
00000210: af05 b4bd 3f73 28be 94a8 81bb 8d5b 2fbe
00000220: effb 80bc 43ce 8abd 66e5 163e cf5e 59be
00000230: f8a9 d6be ead4 07bd 3af1 9a3d 25ee 3a3d
00000240: 7f8e 843e 7246 16be c674 10bd 55d0 44be
00000250: f772 113e 35ce 89be 60da 303d a3b6 df3d
00000260: 0c1a 41be 3e0c a0bd 1ad9 ce3c 906a 76be
00000270: fe07 88bd b978 64be 7506 59be 052a a13e
00000280: 4f07 42be 42fe 083e c415 c83d 5fe3 013e
00000290: 6f36 5d3d ded5 9b3d b988 e1bd fd5a 81bd
000002a0: 5595 923d c920 813d e8a2 c03c dcb4 633e
000002b0: 60d6 fcbe 0107 0f3e 8894 14bd c7e3 85bd
000002c0: cb46 b9bd 360a f83d bc1c a03d 2057 8cbd
000002d0: 49a6 d93d b406 60be db96 fe3d 4045 bdbd
000002e0: 5621 f8bd 271a c0bc c3c2 01bf e0da 793e
000002f0: 4d77 5bbe c0d2 03bc c0b0 6b3d faa1 083e
00000300: 6ad9 293e 5b53 80bd 31bc f2bd ea85 cebd
00000310: d96a 3a3e a01b 99be d15e 92bc ddba 22be
00000320: 6b1e bdbe 570d b13e bc09 d2be d4c2 81bd
00000330: a035 11be 2ed1 7d3e e746 1c3e 1f91 b7be
00000340: a398 463e 0ac0 86bc d89f 9bbc 9b3a 8fbe
00000350: f25e bbbd ff75 1cbc 163c 9dbe 89b2 bd3e
00000360: ac54 e0bd e1fd 323e 47d9 14be 7e0c 81bd
00000370: 28c6 c93d a244 27be 2294 01bd e587 52be
00000380: 9503 ba3d bc5d 50be fac1 d7bd 70b6 b5be
00000390: d8a5 8ebe 965a fe3d 0533 34be aa3a 8d3e
000003a0: 5df0 893d 45c3 2f3e c0da 043c 7970 83be
000003b0: 9e69 b5bd 042e 98bd ba3b 083e 68d5 2fbe
000003c0: 8312 bbbe 396c b7be 376b b33c 8f79 bd3e
000003d0: 9319 63be 55c3 31bd 7187 b0bc 9c63 ef3c
000003e0: 1383 6cbe e593 a6bc 03c0 953c 6235 103e
000003f0: f117 44be fe55 cf3e 1423 6d3d f967 de3d
0.032568462 -0.33398053 -0.51657146 -0.45397767 -0.22542067 0.3367524 -0.18430908 0.19010255
-0.036673367 -0.10292325 0.0714245 0.014365874 0.14916067 0.02318337 0.21483554 -0.0939605
-0.053928506 -0.13075034 -0.5185376 0.021043481 -0.37421232 0.09901988 -0.019653274 0.06145904
0.17825349 -0.27368185 0.011696207 0.1594086 -0.23345423 0.2191831 -0.10571157 -0.044198256
-0.13700795 0.3376493 -0.2559914 -0.004788527 0.0411059 -0.38389385 -0.14130287 0.14403185
0.13323188 -0.31810737 -0.032102637 0.05244108 -0.0459521 -0.04989948 -0.35437477 0.02093485
-0.037715457 -0.07430071 0.10988903 -0.23254766 -0.030700302 0.06051206 -0.024380587 -0.03895527
-0.42396683 -0.0281896 0.121406384 0.19160944 0.34837347 -0.118524924 0.26000658 0.07603942
0.10207929 -0.22905785 -0.15642937 0.24491492 -0.09112316 -0.08728596 -0.47848687 0.008692113
0.006897497 0.00700039 0.0039372896 -0.093601674 0.07679371 0.07522956 0.1953343 -0.021137187
0.040644005 -0.06626994 0.00019367243 -0.05411131 -0.3677987 0.12663482 0.23434894 0.4602288
0.52383953 0.15389453 0.1342543 -0.063662 0.040962957 -0.29085326 -0.08816995 0.28443995
-0.11330691 -0.26220524 0.24724206 -0.08933731 -0.1878539 0.223796 -0.1700076 0.20804231
0.011706023 -0.027273478 -0.15819782 0.0031659123 0.024502097 0.037408415 0.15752114 -0.028633066
-0.3568956 -0.23239392 0.08428945 0.08676875 -0.37995344 0.3482916 -0.16258807 0.20050605
0.08109957 -0.039702218 0.05130194 0.09372828 -0.1137786 -0.27691206 -0.14753662 0.0135781495
-0.051573977 0.18440197 -0.20912927 0.120190755 -0.087901466 -0.16450213 -0.0039568637 -0.17124768
-0.015745131 -0.067776226 0.14735946 -0.21227573 -0.4192655 -0.033162035 0.075655416 0.04563727
0.25889966 -0.1467531 -0.035267614 -0.19220097 0.14204012 -0.26915136 0.04317701 0.10923507
-0.18857592 -0.07814835 0.025250006 -0.24064088 -0.066421494 -0.22311677 -0.2119387 0.3147737
-0.189481 0.13378242 0.097697765 0.12684391 0.05400699 0.07609151 -0.11012406 -0.06316183
0.07157389 0.063050814 0.02351518 0.22236961 -0.49382305 0.13967516 -0.036274463 -0.06537586
-0.09046706 0.121113226 0.07817981 -0.06852555 0.106274195 -0.21877557 0.12431117 -0.09241724
-0.12115733 -0.02344997 -0.5068781 0.243999 -0.21432228 -0.008045852 0.05754161 0.13343039
0.16586843 -0.06265899 -0.11852301 -0.10084136 0.18204822 -0.2990389 -0.017867478 -0.15891595
-0.3693727 0.3458049 -0.41023052 -0.06335989 -0.14180613 0.24786827 0.15261422 -0.35852906
0.19394164 -0.016448993 -0.018997118 -0.279744 -0.09148969 -0.009549617 -0.30709904 0.37050274
-0.1095365 0.1747966 -0.1453601 -0.06301211 0.098522484 -0.16334775 -0.03163541 -0.20559652
0.090827145 -0.20348257 -0.10535045 -0.3549075 -0.27860904 0.12419622 -0.17597587 0.2758382
0.06735299 0.17164333 0.008108795 -0.25671747 -0.088580355 -0.07430652 0.13304034 -0.17171252
-0.3653756 -0.35824755 0.02190171 0.37006804 -0.22177725 -0.043399174 -0.021548958 0.029222302
-0.23096876 -0.020334193 0.018280035 0.14082864 -0.19149758 0.40495294 0.05789478 0.10859675

gru.weight_hh_l0 f4 [96, 32]
00000000: 7800 133e 8d96 783e b754 c7be dae8 31be
00000010: cdb1 27be 87c9 6eba 4751 bf3e 6413 663e
00000020: 30c5 ab3e dba6 ae3e a418 8bbe c8dc 003e
00000030: ebfa 573e 70c9 583e 96fa a1be 97a5 a53e
00000040: 3e18 96be 5f0a 1cbe 0727 6d3d 4ce8 1ebe
00000050: dc6e 2e3e f7d7 7e3d 0e75 49be 01b9 68be
00000060: 43aa bb3e 8896 bbbe d3ac 8bbe 925d ce3d
00000070: 5e60 a33e dc1b d6bd 17f5 d33d 6e1b 99bd
00000080: cd97 71bd 0505 8c3d c7c0 393e 5973 523d
00000090: 7405 f0bd c344 04be fb41 08be a983 c5bd
000000a0: bbe6 513d 30d8 863d 9853 973d 538d c03d
000000b0: 7166 5e3d eef4 95bd 734a 383e 6449 c23c
000000c0: af47 083e 51f4 86be c7d8 1cbe fb25 47bb
000000d0: a343 e2bd d3a1 a93d f40c 14be 0474 3dbe
000000e0: 98d7 1e3e 7fb7 b93c d932 61be ec28 8fbd
000000f0: 410e fbbd 6ead c2bd 212d de3d 0222 7abd
00000100: 4ccc 75bd afc4 0cbd a4e0 10bd 5981 ed3d
00000110: 45ef 50be 0991 c8bd 1175 9a3e 3b77 8dbd
00000120: 459c 1e3e 6685 f43d 6745 a03d fca3 4ebc
00000130: 9b1b 5fbe e921 6b3e f1c4 9ebd 82a0 153d
00000140: 0abe 46bd c72c 92be 820c d43d 5288 2bbe
00000150: ad89 4ebd bf9c 09be 33e7 6dbe b0b9 a5bc
00000160: 3284 3b3e 7cdc 9abd cb4a 65be 8fd0 4f3c
00000170: eb01 d0bd 403e c23d 9d8f 18be 2865 39bd
00000180: 4d0f 4abe 388a 223c 7a1b c93c bdf2 cf3c
00000190: fb19 a83d 5a31 adbd ea9a 0b3e 4457 40bd
000001a0: c710 a13d 9212 c8bd 3a53 b0bd 9483 e5bd
000001b0: e71a 98bd 7433 53bc 9e9f c43d 0b7a 5a3d
000001c0: d11d c23c 05de f4bc 196b 7c3b 6be2 6fbc
000001d0: 56a5 e1bd 8424 31bd 4ac2 0bbe e241 24bb
000001e0: a681 053e 7e57 d5bd a7ae aebd 50cb bf3c
000001f0: 35c6 3bbe f285 503e 40f4 4fbd 3587 993d
00000200: 8761 29be 44a3 3f3e 5d86 1fbe 2c95 5fba
00000210: d80b 06be 31f6 123e 5435 db3d 7f50 a13d
00000220: 5da7 333e 567d bfbd 4ce0 64be 2073 063e
00000230: c359 dd3d a673 bf3e 144b f5ba a478 813e
00000240: 56f9 50be a9fc c6bd cdff 99ba 26ab 81be
00000250: 30d0 073e 5c63 febd 5059 c4bc dc92 edbd
00000260: 20ec 56bd f118 d5bd a840 6ebe e411 25be
00000270: f2b2 f1ba 4594 28bd b565 fe3d 39ab 633d
00000280: a9b5 e4bb 5570 0b3e 85d2 e9bd 1f74 fc3d
00000290: 3a95 803c a49b b4bd d33d b03d 127e 64be
000002a0: cdce 88bd 0287 a03c ea14 c13c b3e2 3bbd
000002b0: b822 86bd 2c96 a23c 259d 3cbe b85b 163e
000002c0: ce92 003e c24b 13be 9a9c fbbc 6a89 0bbe
000002d0: 5cb2 a23d d5e8 00bd c934 d23c 566e febd
000002e0: 0c32 dfbb 70eb bfbd 9231 acbe 1c5c 58bd
000002f0: dcf0 37be 32d1 1a3c c2fa 383d c6ca 1cbe
00000300: 481d 24be 2a85 d63d b657 88be f103 82be
00000310: f552 a3be 67f5 0f3e 654e 833e e67d b33c
00000320: 60db 6e3e 0ecc c73d 763b 6cbe fb81 083e
00000330: 82a0 053e a692 0d3e 154c b4bd 5c6d 933c
00000340: 46a0 6abe e4ad fe3d 2b1b e93d c584 73be
00000350: 4395 2b3d fc0a 113e 693e 253e d9ed 8abc
00000360: 0d6b 9e3e c8d4 e4bd 606d 6cbc 39fa dbbd
00000370: 97ba db3d 475d 11be e0d0 10be 322e 9d3d
00000380: 65cb a6bd 82b4 283d 6608 9abd 7d50 473e
00000390: 1dc8 00be 6a32 383c 77c2 923d 8744 a7bc
000003a0: 03ea e43c 81e5 4c3c 112c 243e 69af a63d
000003b0: 18f1 9cbd 22d2 1bbe 4b24 b6bc c1f7 3cbd
000003c0: eeeb 8a3d a0ca 4f3c aee7 5b3c c0ea 1ebd
000003d0: 54fe 2cbe f36f 29be c72a 323e e8d5 523e
000003e0: 9368 2fbe fff6 893c 5799 1fbe 8794 f6bc
000003f0: 3bdb 94bb d554 4e3d e293 a93d 06f1 493e
0.14355648 0.2427618 -0.3893182 -0.17373982 -0.1637642 -0.00091090094 0.37366697 0.22468334
0.3354888 0.34111676 -0.27167237 0.12584221 0.21091811 0.21170592 -0.31636494 0.32352898
-0.2931537 -0.15238331 0.057898548 -0.15518302 0.17034477 0.06221768 -0.19673559 -0.22726823
0.36653337 -0.36638284 -0.27280292 0.10076441 0.3190946 -0.104545325 0.103494816 -0.07475935
-0.05898266 0.06836895 0.18139945 0.051379535 -0.1171979 -0.12916856 -0.1330642 -0.09644253
0.051245432 0.06584203 0.07388991 0.094019555 0.054296914 -0.07322107 0.1799715 0.023716636
0.13308595 -0.26358274 -0.15317069 -0.0030387628 -0.11048057 0.08282819 -0.14458066 -0.18501288
0.1551193 0.022670506 -0.21992053 -0.06990227 -0.12258578 -0.09505735 0.108484514 -0.06106759
-0.060009286 -0.03436726 -0.035370484 0.11596937 -0.20403774 -0.09793288 0.3016744 -0.06907507
0.154893 0.11939506 0.078257374 -0.012612339 -0.21787874 0.22962154 -0.07752407 0.036530025
-0.04852108 -0.28549787 0.10353948 -0.16751221 -0.050424267 -0.134387 -0.23232727 -0.020230144
0.18312147 -0.07561585 -0.22391813 0.012684002 -0.10156616 0.094845295 -0.14898534 -0.045262486
-0.197324 0.009920649 0.024549235 0.025384301 0.082080804 -0.08456679 0.13633314 -0.046958223
0.07864528 -0.09769167 -0.08609624 -0.11206737 -0.07427006 -0.012890685 0.09600757 0.053339045
0.023695858 -0.029891023 0.0038515984 -0.014641385 -0.110178635 -0.043247715 -0.13648334 -0.0025063683
0.13037738 -0.104170784 -0.08529406 0.023412377 -0.18337329 0.20363596 -0.050770044 0.07496492
-0.1654111 0.18714625 -0.155786 -0.0008529003 -0.13090456 0.14351727 0.10703531 0.078766815
0.17544313 -0.09350078 -0.22351187 0.13129854 0.10808136 0.3739292 -0.0018714392 0.25287354
-0.20407614 -0.0971616 -0.0011749208 -0.25325888 0.13263011 -0.12421295 -0.023968369 -0.11600277
-0.05247128 -0.10405148 -0.23266852 -0.16120106 -0.0018440171 -0.041157026 0.12421743 0.055583213
-0.0069796634 0.1361707 -0.114171065 0.12326836 0.015696157 -0.088187486 0.08605542 -0.22313717
-0.06680069 0.019595627 0.023569543 -0.045870494 -0.06549591 0.019846998 -0.18419321 0.14683425
0.12556002 -0.14384368 -0.030714322 -0.13626638 0.079441756 -0.031472046 0.025659936 -0.12423389
-0.006811386 -0.09371078 -0.3363157 -0.052822217 -0.17962974 0.00944929 0.045161016 -0.15311727
-0.16026795 0.10474618 -0.26629418 -0.25393632 -0.3189923 0.14058457 0.25645748 0.021910619
0.23325872 0.09755717 -0.23069558 0.13330834 0.1304951 0.13825473 -0.08803574 0.017996483
-0.22912702 0.12435511 0.11382135 -0.23781116 0.041890394 0.14164346 0.16137089 -0.016959118
0.30941048 -0.11173397 -0.014430374 -0.107410856 0.107289486 -0.14195739 -0.1414218 0.07674827
-0.08144263 0.04118777 -0.07521133 0.19464298 -0.12576337 0.011242488 0.071659975 -0.020418419
0.027943617 0.01250589 0.16032435 0.081389256 -0.076631725 -0.15216878 -0.022234103 -0.046134714
0.06783281 0.012682587 0.013421936 -0.038798094 -0.16893893 -0.16546611 0.17399131 0.20589411
-0.17129736 0.01684141 -0.15585838 -0.03010012 -0.004542736 0.05037387 0.082801595 0.1972085

gru.bias_ih_l0 f4 [96]
00000000: 84ec ab3c 551a 02be daa4 9e3d 4407 513d
00000010: 4913 013d 6aef 323e 7917 e4bd 2906 a53d
00000020: 50fd 553e ee7b 043d 4860 ecbb bf13 a6bd
00000030: 25c8 d8bd 3641 0e3d b6c1 debb c549 c73d
00000040: a11b 0ebe e5c4 b4bd 4039 263d a6be 2fbb
00000050: cb66 d73d 1eb6 b9bd 5ce1 06be 44f6 da3c
00000060: 7043 593d 7ebb 1dbd b3a1 3b3e c0d3 1dbe
00000070: fcaf 5fbd bb90 2b3e 3b7c aa3d 8dfc 48bd
00000080: fd7a 43be 8778 acbe 2df5 83be 4458 99be
00000090: b0f3 b3bc f72b 53be b52b dfbe 3bd6 febd
000000a0: 6534 bdbe 7fd1 92bd dfb7 90bd 05d4 a8bd
000000b0: 8370 f6bc 1a3e 4cbe 9323 bdbe 536d 07be
000000c0: 537c c9bd 6230 6dbc 4318 43be 86f0 623c
000000d0: 7c48 b1be 8c22 683a 8b2a 83be 632e b5be
000000e0: ae04 4fbe e253 bfbe bcd6 ccbe acbd e1bd
000000f0: f158 08be dd27 c6bd f783 34be 0823 e43c
00000100: 0bd9 813d bc5b 333e 950b 21be 627c 7abd
00000110: bb83 1e3e 2f2a ae3d a77a 003e 8b2a e13d
00000120: c731 ba3d a1c0 543e dba7 a13d f7fa 363d
00000130: 5b2a 00bc 3e9c 103e 8cf2 b4bd d025 583d
00000140: 5c59 fbbc 41ac cc3c 1925 683e 6e21 c8bd
00000150: 55e8 453c 3955 f8bc 6bc8 c3bd f95e c3bd
00000160: 861b a0ba edde 3fbe 2504 82bd 243f bb3d
00000170: 1ebc b4bd 30cb a4bd d1b8 1dbe 8849 12be
0.020986803 -0.12705357 0.07746287 0.05103232 0.031512532 0.17474142 -0.111372896 0.080578156
0.20897412 0.03234475 -0.007213626 -0.08109235 -0.105850495 0.03473016 -0.0067979945 0.09730867
-0.13877727 -0.08826617 0.04058194 -0.0026816516 0.10517653 -0.09067939 -0.13171905 0.026728757
0.05304283 -0.038508885 0.18323402 -0.15412807 -0.05461119 0.16754429 0.08324476 -0.049068976
-0.19089885 -0.33685705 -0.25772992 -0.29950154 -0.021966785 -0.2062224 -0.43588033 -0.12443205
-0.36954036 -0.071688645 -0.07066321 -0.082435645 -0.030082947 -0.19945565 -0.36941203 -0.13225298
-0.09838166 -0.014476867 -0.19052224 0.013851291 -0.34625614 0.00088552455 -0.25618395 -0.35386953
-0.20216629 -0.37368685 -0.4000758 -0.11022505 -0.13315178 -0.09675572 -0.17628466 0.027848735
0.06340226 0.17515463 -0.15727074 -0.061153777 0.15479939 0.0850414 0.12546788 0.109944426
0.090915255 0.20776607 0.07893344 0.044672932 -0.007822598 0.14122102 -0.08835325 0.052770436
-0.030682258 0.02498448 0.22670402 -0.09772001 0.012079318 -0.030314075 -0.09559711 -0.09539599
-0.0012215234 -0.18737383 -0.06348447 0.091429025 -0.08824943 -0.080465674 -0.15402533 -0.14285862

gru.bias_hh_l0 f4 [96]
00000000: ac9c 0d3e d076 19be 6bb2 753d c8dd 203e
00000010: 9697 b9bd 298f 84bd 2ff2 23bd 6c17 cebc
00000020: 1652 9dbd 8758 89bd 06cd 15be 0408 05be
00000030: c7ff 75bd 96b5 23be 7c0f 9cbd e78f 94bd
00000040: 4593 d83b 6095 fbbc 6650 6dbd 6371 a2bd
00000050: a1d5 28bd 7074 d2bd ee18 1b3e e39f b93d
00000060: 05b6 483d 5bca 25bc 5c78 543e 6e5f 263e
00000070: b574 59bc a743 2d3d 3637 67bd 3c10 5bbd
00000080: 2139 c3be bf56 dfbe 7ac6 a9be 7185 fabd
00000090: 585d 8abe dbc8 f8bd 58d9 70be bb88 d4bc
000000a0: f5da 6bbe 6c1b 19be b97d 3bbe 2d2b 4fbd
000000b0: 6557 11be 3467 2fbe 3ee5 b0bd 6bae 03be
000000c0: ff51 ac3d ac32 99bc 2088 86be 582c cabd
000000d0: 3b5e d5be 47e4 a8bd 8e08 81be e408 93be
000000e0: 0274 c3be d4c1 86be 626c 05bf 1949 08be
000000f0: 76ce e3be fed5 7ebe f558 ebbc 63d6 22be
00000100: 3dfa 67bd 3edc 5cbd 8de2 d5bd c2c8 ecbc
00000110: 7312 1fbe 57d5 7c3d 7ef0 253e 4855 11be
00000120: f48d 6ebc d589 a03d bdda 27be 31fd 85bc
00000130: abca 65bd 657f a2bd 071a 333c fd5f a5bc
00000140: 0108 9b3d 6256 df3d fd4e 30bd 00f7 7eb5
00000150: 7513 6f3d c751 8e3d f133 353d 67a3 9d3d
00000160: 5a12 cc3a 8d47 18bd b58f 09be 1429 633d
00000170: c3ca ddbd e924 00be 6da0 0bbe 247f 0fbe
0.13829297 -0.1498673 0.059984606 0.15709603 -0.09062116 -0.06472618 -0.040025886 -0.025157653
-0.07681672 -0.067063384 -0.14628991 -0.12991339 -0.06005838 -0.15987238 -0.07620141 -0.0725401
0.006609353 -0.030710876 -0.057938002 -0.07931783 -0.041219357 -0.10276115 0.15146229 0.09063699
0.049001712 -0.010119046 0.20749038 0.16247341 -0.013272454 0.042300846 -0.056449138 -0.05348228
-0.38129523 -0.4362087 -0.33159238 -0.12232483 -0.2702434 -0.12147685 -0.2352041 -0.025944104
-0.23032744 -0.14951867 -0.18309678 -0.050578285 -0.14193495 -0.17129213 -0.086374745 -0.12859504
0.08414077 -0.01870092 -0.2627573 -0.09871739 -0.41673455 -0.082466654 -0.2520184 -0.2871772
-0.38174444 -0.26319754 -0.52118504 -0.13309135 -0.44493455 -0.24886319 -0.028728941 -0.15902095
-0.05663513 -0.053920977 -0.10443602 -0.028904323 -0.15534382 0.061726894 0.16205022 -0.14192688
-0.014560211 0.078387894 -0.16392036 -0.016356083 -0.056101482 -0.07934455 0.010931498 -0.020187372
0.07569886 0.10905148 -0.04304408 -9.4981806e-07 0.058368165 0.069491915 0.04423899 0.07697182
0.0015569434 -0.03717761 -0.13433726 0.055459097 -0.10829689 -0.1251408 -0.13635416 -0.14013344

fc.weight f4 [1, 32]
00000000: a87c b1be 403b b5be 5633 c43e 1998 5e3e
00000010: a3a3 f43d bf9b e3bd c77e b8be 2c95 4fbe
00000020: 98cc 90be ef5c 93bd b1c0 023e 0af0 83be
00000030: 6f9a 84bd a01e 8ebe 9bb3 a93e ed0b 79be
00000040: 18dc b53d a847 373e 0170 07be c855 fe3d
00000050: 3c30 c5be a4a5 70be 2025 a03e 194b 8d3e
00000060: 9abb 91be f3a9 ae3e 0cbf 993e 8f34 7fbe
00000070: ff6f c7be 1f07 693e 0f3e 013e 576f 60bd
-0.34665418 -0.35396767 0.38320416 0.21737708 0.11945274 -0.111136906 -0.36034223 -0.20271748
-0.28281093 -0.0719546 0.12768818 -0.25769073 -0.06474768 -0.2775774 0.3314484 -0.24320956
0.0887987 0.17898428 -0.1322632 0.12418705 -0.38513362 -0.23500687 0.31278324 0.27596357
-0.2846344 0.34114036 0.3002857 -0.24922393 -0.38952634 0.22756623 0.1262133 -0.054793682
