project/best_grusb_model_K2.pth (torch, 21733 bytes, 5 tensors)

gru.weight_ih_l0 f4 [96, 14]
000000 7d 7f 78 bd 4c 53 4f 3d 70 21 30 be e2 db 32 3e
       -0.060668457 0.050616547 -0.17200255 0.17466691
000010 8b a0 67 be cd da c5 3d 2e 55 0e bd ed 08 40 3c
       -0.22619836 0.096608736 -0.034749202 0.011720878
000020 21 29 fe 3d fc 27 1f 3e f8 24 a9 bd 55 73 e8 bc
       0.124101885 0.15542597 -0.08259004 -0.028375307
000030 6a 8d 6c bd 26 21 56 be a7 c5 c6 be 16 4e 14 3d
       -0.05775205 -0.20911083 -0.38822672 0.03620728
000040 02 fb 2d 3e f0 4f 41 3c 63 26 95 3e fb 35 c2 3d
       0.16990283 0.011798844 0.2913085 0.09482952
000050 35 37 97 bc a9 f1 ad 3d 49 45 77 3e 02 ab dd be
       -0.018458942 0.08493359 0.24147524 -0.4329453
000060 4c 9f c9 3d c9 0b d6 3e 26 33 3f 3e fe 4e 91 be
       0.098448366 0.41805866 0.18671855 -0.2838058
000070 38 86 61 be e4 87 aa 3e 94 89 5d 3d b3 1b 85 3e
       -0.22023857 0.333068 0.054086283 0.25997695
000080 47 ac ec 3d 2d ac 29 bd f5 3e ca bd 08 26 09 be
       0.11556297 -0.041423965 -0.09875289 -0.13393414
000090 15 f2 8e 3d 48 26 d3 be b3 7c 2b 3e 0a ea 88 3e
       0.06979767 -0.41240144 0.16746788 0.26741058
0000a0 2e 22 ee 3c f2 cd 65 be c2 4f 96 bd 1e a5 f8 bd
       0.029069033 -0.22441843 -0.07339431 -0.121408686
0000b0 b8 31 71 be 91 14 37 be 03 a1 40 3c 25 57 58 3e
       -0.23554122 -0.17878939 0.011757138 0.21126993
0000c0 36 6c 80 be df 88 79 bd fa 3c df 3d dd 4f e7 3d
       -0.25082558 -0.060921546 0.10900302 0.112945296
0000d0 6d e4 48 be 01 96 eb bd 77 bc 1d bd c3 bf 22 be
       -0.19618388 -0.1150322 -0.038509812 -0.15893464
0000e0 8d 14 96 3c 60 b9 36 3d 4a ee 93 bc 76 cc c0 3d
       0.018320346 0.04461038 -0.018057961 0.09413998
0000f0 ee aa db 3e 04 83 b2 3d cc a1 4c 3e 55 29 7f 3c
       0.42903847 0.087163955 0.19983596 0.015573819
000100 66 36 1d be 1b c2 33 be d0 16 08 3d 1a 42 b1 bd
       -0.15352783 -0.17554514 0.03322488 -0.08655186
000110 04 13 82 bd 47 1a 1e be b5 d8 ae bd 1d 8b ab 3d
       -0.06351283 -0.15439712 -0.08537427 0.08376143
000120 89 df de 3c 00 0e d7 bb 97 e6 e9 3d 66 c0 eb 3c
       0.0272062 -0.006562948 0.11420935 0.028778266
000130 87 44 19 3e 47 a7 11 be e2 46 be 3d 2e e8 59 be
       0.14967547 -0.14223967 0.092908636 -0.21279976
000140 a9 35 9d bb 98 18 fb 3e e4 3a 24 3e 4f ae 3d be
       -0.0047976566 0.490422 0.1603809 -0.18523525
000150 5c 88 34 be 59 dc 89 3e 1e 56 49 3e 6a 54 17 3e
       -0.17630142 0.26925924 0.19661757 0.14778295
000160 25 ec 82 3e b1 eb c5 bd b7 20 19 3e e1 48 b9 bd
       0.2557079 -0.09664095 0.14953886 -0.09047104
000170 c1 4d 3e bd 58 cb 89 be ab 78 c6 3d 4e 7e 10 3f
       -0.04646087 -0.2691295 0.09690984 0.56442726
000180 99 71 5f bc 8f a5 17 be 9f 38 54 3e a1 91 67 be
       -0.013637924 -0.1480925 0.20724724 -0.22614147
000190 4d 83 dc be 70 66 b2 be 63 83 ab be d1 b9 be 3e
       -0.43068925 -0.3484378 -0.33498678 0.37251142
0001a0 78 4f b9 be 5a 2e 38 3e 79 88 a3 bd 11 be 34 3e
       -0.36193442 0.17986432 -0.079850145 0.1765063
0001b0 86 34 31 be e4 11 f7 bd a2 15 e1 bd 88 0d 0b be
       -0.17305192 -0.12063959 -0.10990454 -0.1357938
0001c0 bb 9f 11 bd df 83 7a bd ed 1a 43 be ad 48 8f be
       -0.03555272 -0.06116092 -0.1905324 -0.27985135
0001d0 ef d6 a7 be 7c 38 44 3e ef 10 7a be 8f f7 2d 3e
       -0.3278117 0.19162172 -0.24420522 0.16988967
0001e0 62 b7 42 be 9e 67 41 3e 56 f8 2f 3d 82 83 32 bd
       -0.19015267 0.18887183 0.04296144 -0.043582447
0001f0 57 a7 38 3e 28 85 cb bc 0d c3 c2 be 35 cf f7 bd
       0.18032585 -0.024843767 -0.38039437 -0.121000685
000200 b3 33 50 be 35 d4 0e 3d cf 7d c3 bd 2a c9 a9 3e
       -0.20332222 0.034870345 -0.095454805 0.33161288
000210 f4 a4 74 be 7f 26 a3 3e 6d be 63 ba a6 31 3e 3d
       -0.2389105 0.31865308 -0.00086877384 0.046434067
000220 76 85 7b bd 22 87 cc 3d 19 24 f1 bc 87 d1 31 be
       -0.061406575 0.09986712 -0.029436158 -0.17365085
000230 15 a6 eb 3d 16 1b 6b 3e 9b ea 83 3e 94 3a 71 3d
       0.11506287 0.22959551 0.25764927 0.058893755
000240 8c b7 6e 3e 5e d0 10 be a0 3c 48 3e 24 10 1c be
       0.23312205 -0.14141986 0.19554377 -0.15240532
000250 2c 2d 78 3e e3 94 86 be 49 18 48 bd 97 2b 94 bd
       0.24235982 -0.26285467 -0.048851285 -0.072348766
000260 5c 0f 40 3e 51 1b 08 be e4 64 58 bd df d3 5a be
       0.18755859 -0.1329167 -0.05283059 -0.21369885
000270 99 4a 76 be e4 32 81 be f4 40 98 be 2b 29 c4 3e
       -0.24051894 -0.2523414 -0.29737055 0.3831266
000280 8a e9 82 be ea 3f a3 3e e0 26 64 3c be 6c f2 3c
       -0.255688 0.318847 0.013925284 0.029592868
000290 24 63 3a bd 50 23 02 be 27 d9 7b 3d 53 09 c4 3d
       -0.045504704 -0.12708783 0.06148639 0.09572091
0002a0 28 26 78 bc d3 8e c7 be 23 0c 9f be 15 85 4d be
       -0.015145816 -0.38976154 -0.31063947 -0.20070298
0002b0 ce 47 21 be a2 af e5 3e fb 06 dc be f9 3e 12 bc
       -0.15750048 0.4486056 -0.42974076 -0.008926147
0002c0 fd f8 cb bd c8 23 94 3e 21 66 a0 3d 96 e7 a1 bd
       -0.099596 0.2893355 0.078319795 -0.079055
0002d0 c3 9d 25 3e 94 f1 38 3d 68 a4 d2 bc 7d 68 92 be
       0.16173463 0.04515226 -0.02571316 -0.28595343
0002e0 b3 dd 97 be fb 6e 99 be 6a be b3 be 60 60 8a 3e
       -0.2966133 -0.29967484 -0.35106212 0.27026653
0002f0 6d 58 39 be 41 3e 84 3e 4b 5d 82 bd a3 ad c2 3d
       -0.18100138 0.25828746 -0.063654505 0.09505775
000300 ff ac 07 3e 59 56 88 be 06 66 78 bd e5 e0 ec 3d
       0.13249587 -0.26628378 -0.060644172 0.11566333
000310 93 c5 21 be 76 f5 92 3d cc 4d 21 3e b0 4e 00 3e
       -0.15798025 0.07175724 0.15752333 0.12530017
000320 78 aa 3a bd ab 40 30 be 39 db ef bc c2 00 2d be
       -0.045572728 -0.17212169 -0.029279338 -0.1689482
000330 2a ad 73 be 77 dc 5e 3d 8b e6 a0 3d 8e fd 1f 3e
       -0.23796526 0.05440947 0.078564726 0.15624067
000340 99 87 ac bd 09 10 81 bb 73 71 d9 3d 09 a1 82 bd
       -0.08424301 -0.003938679 0.10617342 -0.06378371
000350 dc 4d 7f be 1c d5 11 be ba ab 2a be ba 71 b9 3e
       -0.24932045 -0.14241451 -0.16667071 0.3621958
000360 3c 9c ab be e6 cd 27 3e d3 fe 29 3e 4f 32 ae 3d
       -0.33517635 0.16387138 0.16601114 0.08505689
000370 a6 df eb 3d a8 b5 5d 3e c6 8c 65 3e f7 30 2f bd
       0.11517267 0.21651328 0.22416982 -0.042771306
000380 52 ae 66 3d d1 52 4d bd 28 5a 09 be b3 c1 a8 be
       0.05631859 -0.050127808 -0.13413298 -0.3296028
000390 7a 59 07 bd 35 52 e9 3e 02 ed ed bd 1c c0 ae bc
       -0.033044316 0.4557053 -0.11617471 -0.02133184
0003a0 0d 49 de 3d 7b a4 48 3e ad 61 b8 bd fa bc f6 3c
       0.10853777 0.19593994 -0.09003005 0.030119408
0003b0 23 f4 44 3e c6 83 ca 3d fa b3 b4 be 36 e0 02 3d
       0.19233756 0.09888415 -0.3529356 0.031952105
0003c0 4c bc 93 3d 98 f4 6f be f4 38 38 3e be 82 1c bd
       0.07213649 -0.23433149 0.17990476 -0.038210623
0003d0 f8 a3 4b bb bd 3f 17 3e 79 43 e1 bd a7 7c d4 be
       -0.0031073075 0.14770408 -0.109991975 -0.41501352
0003e0 d1 b4 ca 3b 1b fd 9d 3c 0f c7 60 bd a4 7a 49 be
       0.006186106 0.01928573 -0.054877337 -0.1967569
0003f0 ef 0c c4 be 9c ea ad 3e 31 1c 2d 3e 07 3b 4d 3e
       -0.38291118 0.33968055 0.16905285 0.20042048

gru.weight_hh_l0 f4 [96, 32]
000000 ff 58 bf bd 5e 63 1c be 57 d5 1f 3e 56 5f f6 3d
       -0.093431465 -0.1527228 0.15608726 0.12029903
000010 fe b4 57 3d b8 7b 61 3e b0 bd 86 bc 31 98 c1 3c
       0.052662842 0.22019851 -0.016447872 0.02363214
000020 c3 17 38 3d bb f0 08 3e 14 59 da 3d 0c 52 85 3d
       0.044944536 0.13373081 0.106615216 0.0650979
000030 96 0a 63 3d d1 c6 65 bb d1 9c 0a 3e 7d 83 5b be
       0.055430017 -0.003506113 0.13536383 -0.21436878
000040 69 ed 5b 3d 9d 9d 47 3e bf d3 00 3c 58 c2 8b 3e
       0.05369321 0.19493718 0.007862984 0.2729671
000050 ac 69 a5 bd 22 7e 08 bd 4f 4b ba 3c 27 b5 93 be
       -0.08076796 -0.033323415 0.022740988 -0.28849146
000060 26 04 d8 3d 84 fc c2 bd 82 89 da bd e5 2e 3e 3e
       0.10547666 -0.0952082 -0.10670759 0.18572576
000070 36 df 31 bc 88 e9 14 bd 76 73 04 bd fe e2 98 bd
       -0.01085644 -0.036355525 -0.032336675 -0.0746517
000080 c3 a8 01 3e 4a 9a 98 3e af 45 42 3c e9 21 2a be
       0.12662034 0.29805213 0.011857434 -0.16614498
000090 94 5d ba 3e 56 a0 85 3e d0 55 fc 3d b2 89 a2 3d
       0.3639952 0.2609889 0.12321055 0.079364195
0000a0 94 7e 2b 3e 86 21 31 3d 93 5a 23 3e b0 e8 bc 3d
       0.16747504 0.04324486 0.1595252 0.09224069
0000b0 2f 81 96 be e2 1b 31 be 96 75 35 3e ce 0c bc bd
       -0.29395434 -0.17295793 0.17720637 -0.0918213
0000c0 7c a5 9f bc 52 e3 3f 3e cc 1c 3c be c6 65 9e 3e
       -0.019488089 0.1873906 -0.1837036 0.30937022
0000d0 11 39 6c be d6 a4 85 be 6c 17 e5 bd a5 14 7d be
       -0.23068644 -0.26102322 -0.11186108 -0.24714907
0000e0 9c 57 5a be 7b e7 ab bd 74 e4 34 bd 10 4d 70 3e
       -0.21322483 -0.08393761 -0.044163182 0.23466897
0000f0 0f a3 78 bd 5b d2 2a 3e df 0e 95 3e 71 89 2e be
       -0.06070238 0.16681807 0.29112908 -0.17044617
000100 94 9f 45 3e 3f 03 99 3e 0d 04 1a bd a6 75 dd ba
       0.19299155 0.2988529 -0.03760152 -0.0016896024
000110 cf b3 a9 3e 5a 13 57 3e 10 0c f7 3d 88 03 e6 3d
       0.33144996 0.21003476 0.120628476 0.11231142
000120 75 44 45 3e b1 ff 9a 3e 0b 01 d6 bd 79 06 fa 3d
       0.19264396 0.30273202 -0.10449418 0.12208266
000130 16 78 36 be a5 62 40 be 74 04 94 3d 55 fa 6b bd
       -0.17819247 -0.1878763 0.07227412 -0.057611782
000140 69 1e c3 bc 05 30 25 3e 7a 39 bf 3d 37 14 f3 3d
       -0.023818212 0.16131599 0.09337135 0.1186909
000150 90 32 7a 3d e4 00 69 be a6 be a5 3d cb bb 88 be
       0.061083376 -0.22754246 0.08093004 -0.26705775
000160 33 28 a5 be 03 7b 54 be 45 4b 62 3c f9 e5 9d 3e
       -0.32257232 -0.2075005 0.013811891 0.30839518
000170 f0 7a 01 be 35 3b 22 3d e4 16 56 3e c5 7b 9c bd
       -0.12644553 0.039607245 0.2090717 -0.07640795
000180 5d e3 3e 3e 53 a0 41 bc 8c 61 6f 3e db 52 24 be
       0.1864142 -0.011818009 0.23377055 -0.16047232
000190 95 3b 04 be c7 12 7b 3e 10 62 3d be cc 64 aa 3d
       -0.12913354 0.24518882 -0.18494439 0.08320007
0001a0 af 55 1a be a6 24 2b 3e c5 7e 47 3d f2 64 89 bc
       -0.15071748 0.16713199 0.04870488 -0.016771767
0001b0 34 aa bb bb 15 c2 5f 3e 31 ce 09 3e 2c 7c 82 be
       -0.005727077 0.2185138 0.13457562 -0.2548536
0001c0 eb 5d 11 be 03 80 03 3e 61 bf 45 bd 1d 6f 37 3d
       -0.14195983 0.12841801 -0.048278216 0.0447837
0001d0 8b ba 16 3d e7 c9 1a bd 10 0c 18 bb 36 15 e7 3c
       0.036798995 -0.037790205 -0.002320055 0.028208356
0001e0 c5 29 1b bd f3 18 a0 3b 06 a8 13 3e 5c c3 9e 3c
       -0.03788163 0.0048857867 0.14419565 0.019380264
0001f0 81 ec 3d be 5a 01 e5 3c c2 0d 1d 3e 36 c5 1e be
       -0.1854725 0.027954746 0.1533728 -0.15504918
000200 c9 e7 9d bd 40 6b 55 bd d3 eb 26 be c7 25 61 bd
       -0.07710225 -0.052104235 -0.16300897 -0.054967668
000210 f6 6b 72 3d 91 e4 25 3e 47 ce bc 3d b1 45 cc bd
       0.05918499 0.16200472 0.09219032 -0.0997423
000220 5e e0 4e 3d 74 04 fc bc 42 b7 42 bd 6f da 90 3c
       0.050506942 -0.030763842 -0.04753805 0.017682282
000230 92 d4 8f bd 47 fc 26 bd c5 15 72 bd 16 b8 5a bd
       -0.070229664 -0.040767934 -0.059102792 -0.053398214
000240 15 26 dc 3d 63 4c ab bd 09 ff 05 bd a4 3a a6 bd
       0.10749451 -0.08364179 -0.032713924 -0.081166536
000250 e3 98 61 be 5c b0 65 bd 4d b4 fd bd 68 26 aa 3d
       -0.22030978 -0.056076393 -0.12387905 0.08308107
000260 05 ad be 3d d7 69 94 bd d2 ef 31 3d 4f bf 6d bd
       0.093103446 -0.0724675 0.0434416 -0.058043774
000270 8d ec 06 be 62 e4 f4 3c c2 8d 02 be d3 c3 2c 3e
       -0.13176174 0.029894058 -0.12749389 0.16871576
000280 47 2b ad 3d e0 de 48 3d fc 70 20 bc d9 72 04 be
       0.0845552 0.049040675 -0.009792563 -0.12934436
000290 64 36 88 3d 23 1d cd 3c 56 55 76 3d 3a 83 41 3d
       0.06650999 0.025038308 0.060139976 0.047244288
0002a0 ff fd 03 3e 0f 43 b9 3e c0 a9 82 bd c4 cb d4 bd
       0.1288986 0.36183974 -0.063800335 -0.10390428
0002b0 8b 34 a9 bd 52 c7 cb 3d 34 d1 d0 3c 33 d4 1c bd
       -0.08261975 0.09950127 0.02549038 -0.038288306
0002c0 41 b5 69 3d 5a 07 97 3e 19 e7 02 3d ca c0 66 3e
       0.057057623 0.29497796 0.031958673 0.2253448
0002d0 22 e1 a4 3d ac 61 80 be b0 06 b4 3b 74 59 90 be
       0.08050753 -0.25074518 0.0054939613 -0.28193247
0002e0 43 f4 96 be 1e 3f 87 bd 0a a5 13 bd 9f de ee 3d
       -0.29483232 -0.066038355 -0.036046065 0.11663555
0002f0 7f 9d 40 be d7 35 2a be 42 b9 6a 3e 56 7b 4d bc
       -0.1881008 -0.16622101 0.22922233 -0.012541613
000300 9f 59 b1 bd b2 93 07 3e 8f 31 43 3e 02 99 63 bc
       -0.08659672 0.13239935 0.19061874 -0.01389146
000310 ac 8d 95 3e 44 15 2b 3e 03 4a 1b 3d a5 9f 09 3e
       0.2920965 0.16707331 0.03791238 0.13439806
000320 f5 58 41 bd 83 e4 9d 3e e9 93 2a 3d 30 a8 97 3d
       -0.047203977 0.30838403 0.041644964 0.07405126
000330 03 b6 c4 bc 02 60 af bd ba f4 20 3e ca dc 80 be
       -0.024012571 -0.08563234 0.15718356 -0.2516845
000340 c2 2c cf bd b3 6e e4 3d f0 91 11 3d f5 51 03 3d
       -0.10115959 0.11153927 0.035539567 0.032060582
000350 8d c6 08 be de 1a 25 be fc 32 68 be 3e 34 55 be
       -0.13356991 -0.1612353 -0.22675699 -0.2082071
000360 4b 1f 61 be 5c 4e c1 bc 72 65 20 be c2 b0 da 3d
       -0.21984594 -0.023596935 -0.15663698 0.10678245
000370 f9 18 40 3d 34 14 38 bd 47 96 c8 bb 15 85 72 be
       0.046898816 -0.044941142 -0.00612143 -0.2368358
000380 46 5b 06 3d bb b2 1f 3e 95 d5 e7 bc 3a a3 c2 bc
       0.03280189 0.15595524 -0.028300086 -0.023759473
000390 cb 4b c0 bc 05 de 93 3e 68 d0 67 be 22 5a 32 3e
       -0.02347364 0.28880325 -0.22638094 0.17417195
0003a0 8c de 34 be 72 53 85 3d 57 eb f3 bd 2a da 2d 3e
       -0.1766302 0.065100566 -0.11910122 0.16977754
0003b0 a5 db 2d 3c 8c 6e 8a bd d8 90 46 bd 39 ea 89 be
       0.010611449 -0.067593664 -0.048477978 -0.2693651
0003c0 1b 33 8d 3d be 8b 1c bd 22 8a 7e 3d 92 46 09 3e
       0.06894513 -0.038219206 0.062143452 0.13405827
0003d0 e2 b4 97 3d d4 0c f1 3c 9a 40 28 3d 41 9e 8f 3d
       0.074075475 0.029425062 0.041077234 0.070126064
0003e0 95 4c 87 bc b0 07 11 be 28 f8 1d 3d 4c 25 37 bd
       -0.01651601 -0.14163089 0.03856674 -0.044713303
0003f0 44 1f 83 be f0 bb ff 3d 24 8f 9c bd d6 bb d0 3d
       -0.2560979 0.12487018 -0.076444894 0.10192077

gru.bias_ih_l0 f4 [96]
000000 2c 40 7f 3d db 7c d1 bd 35 c7 02 3e 69 ca f6 3d
       0.06231706 -0.102288924 0.12771304 0.120503254
000010 7d aa ab bd 5f 58 ba bd bf bf cc bc 9a b7 b2 3d
       -0.083821274 -0.09098887 -0.024993775 0.087264255
000020 7c 1f 00 3e f7 17 25 3e 9a 1f 49 3e f1 37 a1 bd
       0.1251201 0.16122423 0.19640961 -0.07871998
000030 0d 4f b6 ba 01 00 f2 bd 99 44 3d be 81 6d 03 3e
       -0.0013909057 -0.11816407 -0.18483199 0.12834741
000040 3e e5 67 3e b5 33 0c bd 71 9a c5 bd e6 2c 67 3e
       0.22646043 -0.034229 -0.09648598 0.22575721
000050 a9 15 19 3c 70 8f ff bd 27 ba 76 3d ff 96 64 3e
       0.009343543 -0.124785304 0.060236122 0.22323225
000060 7a 9c c1 bd a5 5c 61 3b ae a1 d7 3d d5 55 51 3e
       -0.09453674 0.0034387496 0.10528885 0.20442899
000070 ac bf 03 be c7 d3 d3 3d dd e1 67 3e 75 d8 5b be
       -0.12866086 0.10343128 0.22644754 -0.2146929
000080 7c 26 21 3c 7f f6 da be e8 a5 e6 be e1 15 bb bd
       0.009835836 -0.42766187 -0.4504845 -0.091350324
000090 26 f1 6f be 9f 67 01 be 26 7a 2b be ce 2d 7f be
       -0.23431835 -0.12637185 -0.16745815 -0.24919817
0000a0 b5 0a 08 3d 4c bf 0e be 52 1d 1c be 1a 21 13 be
       0.033213336 -0.13940161 -0.1524556 -0.14368096
0000b0 28 29 68 be 3b cf e2 bd 05 e7 68 be a6 89 cc be
       -0.2267195 -0.11074682 -0.22744377 -0.39948767
0000c0 82 c6 d3 3b a3 7f 5e be 17 62 95 3c f6 ad 02 be
       0.006462873 -0.21728377 0.01823525 -0.12761673
0000d0 b1 1f b9 be fb c6 82 be b4 e8 00 3e 95 db 38 be
       -0.3615699 -0.25542435 0.12588769 -0.18052514
0000e0 36 fb 3a be fd 20 92 be 0d 2e 99 be 27 34 26 be
       -0.18259892 -0.28540793 -0.29917946 -0.16230832
0000f0 5b cc 20 bd f7 45 17 bd 34 64 3a be 56 d3 be 3d
       -0.03925739 -0.036931958 -0.18202287 0.09317653
000100 b9 60 85 bd 7a aa 51 3b 95 b7 bb bd 23 2c fc 3c
       -0.06512589 0.003199248 -0.09165875 0.030782765
000110 56 b6 1b 3d cc 37 90 bc ed 58 d6 3d 6a c3 9b 3d
       0.038015686 -0.017604731 0.1046618 0.07605632
000120 fd 49 53 3e f9 a4 79 bd bc 8f 2b 3e 72 f3 01 3e
       0.20633693 -0.060948346 0.16754049 0.12690523
000130 ba 79 30 be c4 8b ac 3c 70 88 82 bd 20 e9 12 be
       -0.17233935 0.02106274 -0.0637368 -0.14346743
000140 7f 60 51 be 36 fc cf 3d fa 7d df 3d e5 7c 32 3e
       -0.20446967 0.10155527 0.109127 0.17430456
000150 fb db d0 bd 98 34 76 3d 4f 73 b4 3c c4 14 2e be
       -0.10198208 0.06010875 0.02202764 -0.17000109
000160 cb 20 bc bd 22 e7 7f bb f1 0d 19 bd ac 34 63 3e
       -0.09185942 -0.0039047678 -0.03736681 0.22188061
000170 4c 20 b6 bd 02 5a ff 3d 50 e4 c5 3d 4c df db bd
       -0.08892879 0.124683395 0.09662688 -0.1073595

gru.bias_hh_l0 f4 [96]
000000 42 8a e3 bd 52 a4 fb bc 2e e9 9b bc d0 18 7f 3b
       -0.11110355 -0.030718002 -0.019032087 0.0038924702
000010 ec 6e e5 3d 9d 3a 99 3d 65 fe 8d bb 04 22 33 be
       0.11202797 0.07481883 -0.0043333047 -0.17493445
000020 1c 8a 19 3e 47 be 7e 3c 65 32 a6 3c 1b ab c4 3d
       0.14994091 0.015548295 0.020287702 0.09602948
000030 85 ec a4 bd c2 42 60 bd e9 86 89 3d 5f 4a af bd
       -0.08052925 -0.054751165 0.06715185 -0.08559107
000040 03 9a 1e 3c 5f 9a e3 bc 4b 7b 2b 3e e7 b1 34 3d
       0.009680274 -0.02778357 0.16746251 0.044114973
000050 cd b2 e3 bd be 05 e1 bd b2 8c 43 3d e7 37 00 3e
       -0.11118088 -0.10987423 0.0477416 0.12521325
000060 36 89 d2 3d 87 b5 13 3d 5a 8b 5d bd f5 e9 b9 3d
       0.10280077 0.03606179 -0.054087974 0.09077827
000070 26 fd 2e 3d ba ff 18 be 94 85 63 3d 2c 6b 7b bd
       0.04272189 -0.14941302 0.055547312 -0.061381504
000080 6d ca 37 be ff 82 de be b6 5e e2 be d3 c8 4d bd
       -0.17948313 -0.43459317 -0.44212884 -0.05024035
000090 01 a8 c4 bd e1 b6 6b be 1c 9f 1f be da 95 a1 be
       -0.09602357 -0.23018982 -0.15588039 -0.3155964
0000a0 2c 13 41 39 c4 fb 9f be 4c 91 8b 3b 8f d8 81 bd
       0.00018413056 -0.3124677 0.004259264 -0.063401334
0000b0 4a 9b af be f5 6f e7 bd 22 e1 92 be c0 b0 d5 be
       -0.34298164 -0.11300651 -0.28687388 -0.41736412
0000c0 14 dd 10 be 97 30 4a be 0f 26 8d be 3f ff 80 be
       -0.14146835 -0.19745098 -0.275681 -0.25194737
0000d0 05 ba 17 be e6 a5 32 be 45 c4 20 bd 1f e9 9b be
       -0.14817055 -0.17446098 -0.039249677 -0.30451295
0000e0 1f 4a 57 bb 81 29 65 be ba ec c3 be 31 b7 ce be
       -0.0032850576 -0.22379114 -0.38266546 -0.4037414
0000f0 14 f7 6e bd e5 d9 31 be 03 98 63 be 08 05 2f be
       -0.0583411 -0.17368276 -0.22225957 -0.17091763
000100 fd 80 0e bd d8 3a 7f 3d c0 22 5e 3e 75 66 a1 3d
       -0.03479098 0.062311977 0.21692944 0.0788087
000110 a2 3d 28 3e 9e ac 61 3e 4b 88 10 be d8 33 05 be
       0.16429761 0.22038504 -0.14114492 -0.13008058
000120 8e 8d b1 3d 84 46 d1 3d ec 10 7e 3d 21 8f 8a bd
       0.086695775 0.10218528 0.062027857 -0.06765581
000130 79 75 b8 3d 97 4f 17 be 23 58 4c 3c 4d 49 1d bc
       0.09006781 -0.14776455 0.012472185 -0.009599996
000140 7b a7 37 bd 7e b9 99 3d 7c dc 0c bd f1 dc 53 3e
       -0.044837456 0.07506083 -0.034389958 0.20689751
000150 38 0c 16 be 81 9e 2b be 5a 76 ac 3d 9c 49 3a be
       -0.14653099 -0.16759683 0.08421011 -0.18192142
000160 41 cc 38 be a2 7e 14 be 67 ae 0b be 78 ac 15 3e
       -0.18046667 -0.14501432 -0.13640748 0.14616573
000170 8f 2e 0b 3e 6d 98 27 3e fb 73 61 3e 30 c4 96 3d
       0.1359198 0.1636674 0.220169 0.073616385

fc.weight f4 [1, 32]
000000 9e 86 7e bd e2 51 be be 29 c2 9a be 89 ee 30 3e
       -0.0621401 -0.37171847 -0.30226257 0.17278494
000010 e3 33 b5 bd 9f e7 ad be 8f 18 ad 3e 3d 47 8c be
       -0.08847787 -0.33965775 0.338078 -0.273981
000020 93 01 a2 3c ab f7 63 be a5 11 80 bd 3e 8e 76 be
       0.019776141 -0.22262447 -0.062533654 -0.24077699
000030 63 65 b5 3e 7d 44 b8 be f9 87 81 be 9a bd dc 3e
       0.35428914 -0.35989752 -0.2529905 0.43113405
000040 7d 0a 8e 3e e9 63 50 be fc 2d 35 3e a2 a8 a3 be
       0.27742377 -0.20350613 0.17693323 -0.31964594
000050 d7 70 63 be fa 0c 04 3e 99 84 fe 3d 06 e4 8d 3e
       -0.22211014 0.12895575 0.12427635 0.2771303
000060 9a 62 55 3e 77 4e d0 bd 59 cf a5 3e ab d3 92 be
       0.20838395 -0.10171216 0.32384756 -0.28677115
000070 3b 17 24 3e 37 59 19 3e b9 04 97 be 2b eb 62 3e
       0.16024487 0.14975439 -0.2949579 0.22160022
