project/best_grusb_model_K3.pth (torch, 21733 bytes, 5 tensors)

gru.weight_ih_l0 f4 [96, 14]
000000 9f 65 48 bd 6a 3c bd be 39 41 ed be 20 4c be be
       -0.04892504 -0.36960155 -0.46338823 -0.37167454
000010 98 4b 96 be bd ff b7 3e f5 94 c8 be f7 69 d5 3d
       -0.29354548 0.359373 -0.39176145 0.10420602
000020 5b 5d 82 be 48 d2 36 3e 20 ce 11 be f1 4d 16 be
       -0.2546185 0.17853653 -0.14238787 -0.1467817
000030 65 bb b2 3d 35 82 38 be f9 3d 41 be a8 e0 2b bd
       0.08727149 -0.1801842 -0.18871297 -0.041962296
000040 4c a6 04 be 12 1f 55 3e af 79 bc bd 5e 72 7e 3d
       -0.12954062 0.20812634 -0.09202897 0.062120788
000050 55 e7 2f be 54 4e 4f 3e 1e 40 32 3e 32 a7 63 be
       -0.1717809 0.20244724 0.17407271 -0.22231749
000060 b6 e8 18 be 26 af 89 3e 84 e2 e0 bd 88 44 1c be
       -0.14932522 0.2689144 -0.109807044 -0.15260518
000070 77 0c 02 3d be 3f 2b 3d cf 18 4a 3e 07 cb 5d 3d
       0.03175017 0.041808836 0.19736026 0.0541487
000080 64 d7 55 3c ed 88 43 3e 76 c6 01 be 5b bb 6c 3d
       0.013051841 0.19095202 -0.12673363 0.057795864
000090 7b 3b d2 bd 99 59 81 bd f8 0b 0f be 0f 13 e7 3c
       -0.10265251 -0.063159175 -0.1396941 0.02820733
0000a0 c4 c7 e9 3d 0c ab b5 3d be c4 c2 3d f4 74 51 be
       0.114150554 0.08870515 0.09510182 -0.2045477
0000b0 6b 86 3f be bd 0e 32 be 6b 01 5c be c1 51 22 3d
       -0.1870362 -0.17388435 -0.21484916 0.039628748
0000c0 f6 56 b9 3d 5a 16 78 bc 79 c9 29 3e be 01 64 3e
       0.090497896 -0.015142048 0.16580762 0.2226629
0000d0 cb 16 83 3d 62 1f 38 be ef c0 5f bd 71 4e 22 3d
       0.06400832 -0.17980722 -0.054627355 0.03962559
0000e0 43 e2 bb be 73 38 86 3e 56 45 b2 3c 2e 73 5b 3e
       -0.36696061 0.26214942 0.021761578 0.21430656
0000f0 7f 12 e0 3e 1c 9f 19 3e 0f 70 ac 3d ea e9 70 bd
       0.4376411 0.15002102 0.08419811 -0.058816828
000100 c0 e3 d2 bd f0 f9 db be 52 3b 8f bc ae 79 ce 3e
       -0.10297346 -0.42964125 -0.01748434 0.4032721
000110 d1 88 ad 3d 49 f8 b1 be d5 a6 a8 3c 37 9c a8 3b
       0.08473361 -0.3475974 0.020587364 0.0051455754
000120 ab 71 1e 3e c3 4a 1a 3e 2c 33 67 be d2 cd 99 3e
       0.15473048 0.15067582 -0.22578114 0.3003984
000130 14 2a 27 bd b8 25 c5 3b af 10 16 be 85 aa 29 3d
       -0.040811613 0.0060164593 -0.14654802 0.041422386
000140 19 fd 9a 3d 61 19 e4 3c 61 a3 00 3e 6d 2b fe 3d
       0.07567806 0.027844133 0.12562324 0.124106266
000150 1e ed 64 3d d5 ec 10 be 54 23 06 be cb 4c d7 be
       0.055890195 -0.14152844 -0.13099414 -0.42050776
000160 41 df 6e be 98 1f 81 3e 51 02 a2 be 68 95 ce 3c
       -0.23327352 0.25219417 -0.31642392 0.025217727
000170 01 6f c8 bd eb 8c 43 3d a1 08 40 3d e3 42 ad bd
       -0.09786797 0.04774181 0.04688323 -0.08460023
000180 18 84 c6 bd 79 62 0a be a8 1f ad 3c 0b 52 b1 be
       -0.09693164 -0.13514127 0.021133259 -0.34632906
000190 d7 26 40 be 3d d1 13 bf 57 2a 9e be 5f 96 2e 3e
       -0.18764816 -0.5774115 -0.30891678 0.1704955
0001a0 26 a8 9e be 7f 1d 51 bd 18 46 ba 3d b3 7a f8 3d
       -0.30987662 -0.05105352 0.090954006 0.12132778
0001b0 30 22 75 bd 8e ae b4 bd 61 28 38 bc e5 29 39 bb
       -0.059847057 -0.08822356 -0.011240096 -0.002825373
0001c0 ff 5c b4 3d 43 08 fe be e3 e0 59 be fd 7c 21 bf
       0.088068 -0.49615678 -0.21277194 -0.6308134
0001d0 2b 25 37 be 3f b4 de 3d 61 d8 8f be fc 8b 47 bc
       -0.17885272 0.10874223 -0.28094772 -0.012179371
0001e0 a0 2b 2a 3e ed b4 1f 3e 0a 91 ea 3d 9e aa 7e be
       0.16618204 0.15596361 0.11453445 -0.24869773
0001f0 9a f9 9d bb a1 8d 20 3d 65 cf 10 3e 8c f2 16 be
       -0.0048210146 0.039197568 0.14141615 -0.14740962
000200 0f ea 89 bb 36 4e d2 3c 02 aa a5 be 97 4d 97 3d
       -0.00420881 0.02567206 -0.32356268 0.07387846
000210 ef a7 a4 be 5c 90 a0 3d a7 11 ea 3d 04 c6 2c 3e
       -0.32159373 0.07840034 0.11429148 0.16872412
000220 55 e4 bc 3d 44 76 b8 bd f9 42 63 3e 87 4e 9e bd
       0.092232384 -0.090069324 0.22193517 -0.07729822
000230 80 fc 25 bb f3 5d b6 be 70 ea 5c bd 2b 66 66 be
       -0.0025327504 -0.35618553 -0.053934515 -0.22499911
000240 6b 26 91 be 96 af 5a 3e c9 7d a9 be e3 94 ab bd
       -0.28349623 0.21356043 -0.3310378 -0.08378007
000250 2f 57 fe 3d 69 b8 3a 3e 66 9d b7 bc 05 0f 84 be
       0.12418973 0.1823441 -0.02241392 -0.2579271
000260 42 f2 f3 bd 00 21 42 be 68 25 65 3c 25 14 1c be
       -0.119114414 -0.18957901 0.013985969 -0.1524206
000270 8c bc 27 3e a0 01 dc 38 04 3d 0f 3d 7c 13 a1 3c
       0.16380519 0.0001049072 0.0349703 0.019662611
000280 cb be bf bd 22 9a 08 be 1f 46 2c bd 63 a0 9b 3d
       -0.09362563 -0.13340047 -0.04205906 0.07598951
000290 1d 1e aa bc 70 ff 6f 3e 2e 2f 09 3e ea 8a 11 bd
       -0.020766312 0.23437285 0.13396904 -0.03553287
0002a0 7d 9c 38 be 4e e9 fa 3e b4 1c 7d 3e f1 2a ec 3e
       -0.18028446 0.49006122 0.2471798 0.46126512
0002b0 c6 66 4b 3e ac 42 62 3d 89 1b b2 3d 6c 83 39 be
       0.19863424 0.055239365 0.08696658 -0.1811654
0002c0 83 98 30 3e 74 fd 99 be 97 c3 e9 bd b3 d5 27 3f
       0.17245679 -0.30076182 -0.11414259 0.65560454
0002d0 df c3 df bd 4b 25 ac be dd 2f c7 bd 24 03 f8 3d
       -0.10926031 -0.33622202 -0.09725926 0.12109974
0002e0 15 a8 d7 bd 06 3b ef 3d 79 63 8b 3d b2 9b 90 3e
       -0.10530106 0.1168118 0.06806082 0.28243786
0002f0 fd 01 18 be 27 bc 61 bd 12 b3 6f 3e a6 dc de bd
       -0.14844508 -0.055111077 0.23408154 -0.10881929
000300 fa e9 31 be 52 15 bf 3e 52 1d 0e 3d e7 69 ad bd
       -0.17374411 0.37320954 0.03469593 -0.08467465
000310 14 90 a6 be 6d b3 01 3e 73 6f 7f 3d 19 af 10 3e
       -0.32531798 0.12666102 0.062362146 0.14129294
000320 fd da 3d 3e 96 7d 95 3c ac 71 a8 3b df c3 08 3e
       0.18540569 0.01824836 0.005140504 0.13355969
000330 e9 83 07 3e 56 9e dc be 5e 3d 82 bb 9a 9f ce 3d
       0.13233913 -0.4308955 -0.0039746007 0.10089035
000340 48 a8 b6 3d 15 38 a1 be b2 7f 16 be 82 ba 28 bd
       0.08918816 -0.314881 -0.1469715 -0.041193493
000350 a3 86 3c 3e e1 a1 89 3e 1d b1 9a 3e 54 82 0e be
       0.18410735 0.26881316 0.30213252 -0.13916904
000360 7c ef 27 3e 30 2b 3a be 52 fb 94 3a aa 04 a2 bd
       0.1639995 -0.18180537 0.0011366403 -0.07911046
000370 76 7c 29 be 32 da 53 3e 85 86 0a 3e 5e 65 98 bc
       -0.16551384 0.20688704 0.13527878 -0.018603023
000380 ce e5 1b 3e 75 3b 8f bc 44 df a6 be 8f d1 32 be
       0.15224382 -0.017484406 -0.32592213 -0.17462753
000390 b2 b0 8a 3c b6 c0 ac 3e 51 96 b6 bc 14 c7 29 3e
       0.016929958 0.33740777 -0.022288473 0.16579849
0003a0 5e 68 e6 3d 8b 98 e7 3d b0 e1 9b 3d 95 07 0c 3e
       0.11250375 0.11308392 0.07611406 0.13674767
0003b0 f7 10 41 3e 80 64 98 3d 60 69 6b 3d 91 cf 9d be
       0.18854128 0.07441044 0.05747354 -0.30822423
0003c0 cf 1c 3b 3d 18 d9 ec bd 83 ed 8a be 71 b2 20 3e
       0.04568177 -0.11564845 -0.27134332 0.1569307
0003d0 47 d7 88 be 41 b3 35 3d ec 16 a1 3d 61 fc 46 3e
       -0.26726744 0.044360403 0.078657 0.19432212
0003e0 f8 f3 ec bd 7d 52 1c be fc 88 11 bd fd e1 f4 bb
       -0.11569971 -0.15265842 -0.03553103 -0.007473229
0003f0 f5 c3 ec bd ec eb f9 3c 24 13 0b 3c 04 a0 c9 bd
       -0.11560813 0.030508004 0.00848845 -0.09844974

gru.weight_hh_l0 f4 [96, 32]
000000 40 03 76 be c7 ff a7 bd 52 11 b1 bc 1b 93 6a 3d
       -0.24024677 -0.082030825 -0.021614704 0.057269197
000010 4e 31 a0 be 75 ce 62 be 7d 08 0e 3d 25 02 6f 3b
       -0.31287616 -0.2214907 0.034676064 0.0036469784
000020 26 3e 35 3e 17 3a 8d 3e 45 ad 17 3d 24 aa 8c 3e
       0.17699489 0.27583382 0.037030477 0.27473557
000030 a4 65 2b 3e ab 55 dc bd 2f 32 11 3e a0 a0 91 be
       0.16737992 -0.10758527 0.141793 -0.2844286
000040 de 48 5c 3d 31 45 63 3e 9a 13 8c be 9a a4 22 be
       0.05378043 0.22194363 -0.27358705 -0.15883103
000050 ef 03 e1 bc 8e f0 ad 3d d3 a1 27 3c aa ed 30 3e
       -0.027467696 0.08493148 0.010231453 0.17278162
000060 3e 0a 58 be b8 30 af 3d fc 66 4e 3e 63 0d 39 3e
       -0.21097657 0.08554214 0.20156473 0.18071513
000070 40 de 05 be 9e 31 87 3d 21 85 5a 3e 25 58 e6 3d
       -0.13073063 0.066012606 0.21339847 0.11247281
000080 89 a2 7d be 85 2c 65 be 46 b3 d1 bd 8a a9 68 bd
       -0.24769033 -0.22380264 -0.10239272 -0.05680231
000090 f7 13 3b bd da 41 53 bd 3b ee 0a 3e c7 6b c9 bc
       -0.045673337 -0.051576473 0.1356744 -0.024587525
0000a0 2c 8f eb 3d a7 3f 69 3e 33 15 a7 bd ee b7 a0 3d
       0.11501917 0.22778188 -0.0815834 0.07847582
0000b0 49 19 f7 3d 2c 03 98 bc 2d 19 d7 3d db 93 4e be
       0.1206537 -0.0185562 0.10502849 -0.2017359
0000c0 32 f0 8d 3e 21 34 28 3e 31 f0 f6 bd 76 c0 93 3a
       0.27722317 0.16426136 -0.120575316 0.0011272568
0000d0 12 1a dc bd fa 3c 44 3d 7e 47 4a bd 88 85 fd bd
       -0.1074716 0.047909714 -0.049384587 -0.12378985
0000e0 8b 14 0c be bf ca 3b 3d 5a e7 08 3e bf 0e 47 3e
       -0.13679712 0.04584765 0.13369504 0.19439219
0000f0 98 00 ff bd 6d 94 a1 3d 1c e9 29 3e c8 ec 86 3e
       -0.12451285 0.07889638 0.1659283 0.26352525
000100 6c bf ff 3d 2d 7d bc 3d 6f d6 6b 3e 2d 37 cc 3d
       0.12487683 0.09203563 0.23031019 0.099714614
000110 81 f9 19 bd ee 88 32 3e c8 31 2a bc 68 df 3c be
       -0.03759146 0.17435047 -0.010387845 -0.18444598
000120 93 d8 69 3d a0 ee 57 be 75 a4 27 be 04 e4 9d 3d
       0.057091307 -0.21087122 -0.16371329 0.07709506
000130 fb e7 91 3d b1 d9 84 3e 3b 4a 8b 3d 06 73 07 3e
       0.07124325 0.25947335 0.06801268 0.13227472
000140 19 51 7d be f7 2c e7 bd 58 85 99 3e 6b 00 f6 3d
       -0.24737968 -0.11287873 0.29984546 0.120117985
000150 26 89 b4 bc db db 42 3d b8 35 cc bd 5e 77 1f be
       -0.022038054 0.04757295 -0.099711835 -0.15572879
000160 d0 ea ff bd 25 13 05 be f4 81 c0 bd 37 f0 40 be
       -0.12495959 -0.12995584 -0.093997866 -0.18841635
000170 df c8 a7 3d 4a 14 bc bd 89 a8 af 3c ee 73 54 be
       0.0819261 -0.09183557 0.021442669 -0.20747349
000180 3c 14 26 be 03 d4 1e be 1d 2e e1 3d 0f 4a 68 bd
       -0.16218656 -0.15510564 0.109951235 -0.056711253
000190 47 fa 69 3d d8 fd 47 3a fe c2 78 bd e5 8e a7 bd
       0.05712345 0.0007629073 -0.060732834 -0.08181552
0001a0 3c f1 47 3e 72 5f e9 3c b7 b8 0d be ba 34 f3 3c
       0.19525617 0.028487895 -0.13839994 0.029688228
0001b0 d2 4f 17 3e de 97 ca 3d 8e c8 eb bc 76 af 33 3d
       0.14776543 0.098922476 -0.028782155 0.043868504
0001c0 90 0f 60 3e 38 f1 07 be 9d aa be 3d 46 04 e5 bd
       0.21880937 -0.13275611 0.09309886 -0.11182456
0001d0 43 03 39 bc 12 c6 88 3d 55 1c 4b be 0b c3 63 be
       -0.011292282 0.06678404 -0.19835027 -0.22242372
0001e0 ba 8f 0c 3e 6e 16 30 be 2d 83 b5 3c da c9 cd 3d
       0.13726702 -0.17196056 0.022157276 0.10048266
0001f0 2b c2 a5 3c 46 82 d2 bd 62 d0 01 3e dd 99 b0 3d
       0.020234188 -0.10278754 0.12677148 0.08623097
000200 b1 27 3f be 31 11 72 bd d1 16 5d be 0e 52 6a bd
       -0.18667485 -0.059098426 -0.21590735 -0.05720716
000210 80 91 24 bd 00 bf 73 be e7 02 b4 3b 39 64 36 be
       -0.040177822 -0.2380333 0.00549351 -0.1781167
000220 82 4f 2e be 1b 1a a4 3e 2e 3e c9 3b dd cb 63 3d
       -0.17022517 0.32051167 0.0061414456 0.05561434
000230 e8 a3 97 3e 3a 57 25 3c 19 8d e2 3e 5b de 7c be
       0.29617238 0.010091597 0.44248274 -0.24694197
000240 0f 44 b3 3e 32 92 1d 3e fa ac 8e be c1 8d be bd
       0.35012862 0.153878 -0.27866346 -0.09304381
000250 b4 ad b4 be f9 72 83 3d 9f b9 38 3e 2b 4d 8b 3d
       -0.35288775 0.06418414 0.18039559 0.06801828
000260 56 f9 96 bd 16 8d 94 3e 44 70 c3 3e 30 c2 95 3e
       -0.07371776 0.2901389 0.3817159 0.29249716
000270 45 f7 1a be 36 c2 c7 3e c0 96 a5 3d ad ac c5 3e
       -0.15133388 0.3901536 0.08085394 0.38608304
000280 7e 95 79 be 68 a7 3e 3e 0c 8c 21 3e f5 89 d3 3d
       -0.24373433 0.18618548 0.1577608 0.103290476
000290 e6 6e 58 be 70 e4 52 3e 73 13 4a 3e e8 ff fb 3d
       -0.21136054 0.20594954 0.19733982 0.123046696
0002a0 71 f2 09 3d 25 1a 62 be 4a 76 06 3d 44 86 35 bd
       0.033678476 -0.22080286 0.032827653 -0.0443175
0002b0 ca d1 3f 3e da 2d ab bc a9 41 49 bd b7 0b 04 3d
       0.18732372 -0.020895887 -0.049134884 0.032237735
0002c0 cc 5c 89 3e e8 5e 30 be 9a c5 34 be 9b ff 98 be
       0.2682861 -0.17223704 -0.17653504 -0.29882511
0002d0 f8 18 9d 3d 50 bd bf bd eb 48 4f be e6 0c c9 bc
       0.07670778 -0.0936228 -0.2024266 -0.024542283
0002e0 a7 4d d8 39 33 2d 81 3d a0 d5 71 3d 1b c8 b6 bd
       0.00041256586 0.06307449 0.05904162 -0.08924886
0002f0 20 f9 e1 bd b8 dd f9 bc 8f 79 ca bc 6d 44 23 3e
       -0.11033845 -0.030501232 -0.024716167 0.15944071
000300 9b a4 bd bd 79 2a 71 be fc 30 ad bc aa 0a 51 3d
       -0.092599116 -0.23551358 -0.021141522 0.05103556
000310 c1 db 47 bd c4 71 22 39 6f 2e a3 bc 25 fa 36 3e
       -0.048793558 0.00015491905 -0.019919602 0.1786886
000320 47 b2 54 3e 16 10 82 3e 0a a9 d3 3d 91 98 d9 3b
       0.20771132 0.25402898 0.10334976 0.006640502
000330 35 8c 7f 3e 29 15 45 be 13 56 bf 3e e9 72 03 be
       0.24955828 -0.19246353 0.37370357 -0.12836803
000340 18 9a 83 3e 33 48 88 bc 57 e5 f2 bd ba d9 84 bb
       0.25703502 -0.01663599 -0.11860149 -0.0040542753
000350 22 f0 56 bd ba 2b 98 3b 30 48 9a 3c 80 7c 24 3d
       -0.052475102 0.0046438845 0.01883325 0.040157795
000360 41 dd 5d be ea 9c 19 3e 5b 5a 1b 3e 3c 36 04 3e
       -0.21666433 0.15001264 0.15171187 0.12911314
000370 c6 7e 40 be 6a bd 6c 3e 1d db 0b 3d 86 58 a7 3e
       -0.1879836 0.2311913 0.03414451 0.32684726
000380 86 2c 82 be 92 6e 11 be f8 2a f8 bd 14 d5 ae bd
       -0.25424594 -0.14202335 -0.12117571 -0.08536735
000390 92 b5 3e be 66 96 2d 3e b3 6e 57 3e a8 e4 4e 3e
       -0.18623951 0.16951904 0.21038322 0.20204413
0003a0 9c 6d a3 3c b8 e9 2d bd 5a d5 fe bb 2c c7 83 bd
       0.019949727 -0.04245922 -0.0077768983 -0.064344734
0003b0 9c d5 bc 3d 61 d4 01 be 59 d6 d7 3d 1a a2 34 be
       0.0922043 -0.12678672 0.105389304 -0.17639962
0003c0 55 21 03 3e 73 a1 a1 bd 67 d4 37 be 3d 8d 0c be
       0.12805684 -0.07892122 -0.17952119 -0.13725753
0003d0 82 05 6b be 7e c2 15 3e 1d df 06 3e e9 75 cf 3c
       -0.2295132 0.14624974 0.13171048 0.025324779
0003e0 39 bd 05 be c7 27 30 3e a1 ac cd 3e a6 6c fa bc
       -0.13060464 0.17202674 0.40170768 -0.030569386
0003f0 e0 b2 41 be 6d 84 78 3d 8b 5f 6d 3d 02 2e 12 3e
       -0.18915892 0.060673166 0.057952445 0.14275363

gru.bias_ih_l0 f4 [96]
000000 1c 66 b2 bd 1e f7 00 3d e5 81 3e bd a1 75 95 bd
       -0.08710882 0.03148567 -0.046510596 -0.072978266
000010 a2 e0 aa 3c 36 eb 19 3e 16 36 ff bd 00 09 00 be
       0.020859066 0.15031132 -0.12461488 -0.12503433
000020 40 81 19 be 39 bb a9 3c 37 76 07 be d3 19 dd 3c
       -0.14990711 0.020719158 -0.13228689 0.026989853
000030 95 06 a4 3c e6 0c 38 3e 58 91 68 3d 5b ee de bb
       0.02002267 0.1797367 0.056779236 -0.0068033165
000040 7f 92 c7 3d c3 62 ff bc 1d 3e 9c 3d 90 ea bb bc
       0.09744739 -0.031175023 0.07629035 -0.022938997
000050 ce d1 d3 bd e6 3e c2 bc a9 f0 45 3d e2 5f 8d 3d
       -0.103427514 -0.023711633 0.048325215 0.06903054
000060 ad ee f7 3d 0a 3e ca 3d d7 5d 9f 3d cc 40 db 3d
       0.12106071 0.09875114 0.077815704 0.107057184
000070 84 0b 38 3d 3c d0 05 3b e4 58 60 3e fd fd 01 be
       0.044932857 0.0020418307 0.21908909 -0.12694545
000080 50 d0 82 be dc 56 51 bc 92 86 a4 3d 16 30 99 be
       -0.25549555 -0.012777057 0.0803348 -0.299195
000090 9d 4b 84 be 31 72 a7 bd e1 51 86 bd 39 e5 a8 be
       -0.25838938 -0.08176077 -0.06558586 -0.32987383
0000a0 96 14 70 be 0a e6 ac be 39 bc a8 be fe da 2e 3b
       -0.23445353 -0.33769256 -0.32956102 0.0026680822
0000b0 3a 16 f8 be 26 d4 ae be 42 65 48 be 70 16 bb bd
       -0.48454458 -0.3414623 -0.19569877 -0.09135139
0000c0 aa 22 d3 bd 31 39 98 be cc 43 97 be dd 92 ee be
       -0.10309346 -0.29731134 -0.29543912 -0.46596423
0000d0 26 8f 75 bd f2 ca 0d bd dc df 2a be 4e b0 3a 3b
       -0.05995097 -0.03461737 -0.16686958 0.0028486433
0000e0 8c b1 a7 be 44 c9 85 bb 23 8f 85 be 8e 43 61 3c
       -0.32752645 -0.0040828306 -0.26085767 0.013749016
0000f0 60 35 a1 be 94 14 c4 be 07 12 90 3d 30 39 e4 be
       -0.31486034 -0.3829695 0.070346884 -0.4457488
000100 c9 d6 10 be ae af 50 3e ae 53 35 be 14 6d 77 3d
       -0.14144434 0.20379516 -0.17707703 0.06040676
000110 4a a1 39 be e3 55 55 bd 94 05 91 3c e9 63 a4 bd
       -0.18127933 -0.05208386 0.017702855 -0.08026869
000120 83 53 1f be 80 bf 3e 3d df fc 51 3c 29 9c de bd
       -0.15559201 0.046569347 0.012816637 -0.10869629
000130 a2 8f 4f bd 36 0f 76 3b 61 b2 81 3d 3e 3d e1 bc
       -0.05067409 0.0037545688 0.06332851 -0.027495023
000140 34 1b 14 3c 8e 04 6b 3b 4e f9 20 be 97 0c 0b bd
       0.009039689 0.003586087 -0.15720102 -0.033947553
000150 8b 5d 53 be 84 a3 99 bb b0 6d b1 bd d4 64 8d 3d
       -0.20641153 -0.004688682 -0.08663499 0.06903997
000160 1a 65 bc bc 48 fb 02 3e e6 45 a8 3d 94 60 18 3e
       -0.022997428 0.12791169 0.08216457 0.14880592
000170 98 41 b7 bd dc 36 dd 3d 36 fb 55 bd 7f 1a 05 3e
       -0.08948058 0.10801479 -0.052241527 0.12998389

gru.bias_hh_l0 f4 [96]
000000 de 85 dd bd d7 0e bb 3d 2e bb 8c 3d 49 59 ea bc
       -0.10816549 0.0913369 0.06871639 -0.028607028
000010 50 75 a7 bd 51 56 f6 bd 05 13 4a 3e e8 ae bb bd
       -0.081766725 -0.12028182 0.19733818 -0.0916422
000020 8a c3 ed bd da 77 c4 bd 04 e2 9c bd 82 cd c0 3d
       -0.11609562 -0.09593172 -0.076602966 0.094141975
000030 37 91 ce 3d 26 22 77 3b 7b d6 85 3d 3e 26 3c 3c
       0.10086291 0.0037709563 0.065350495 0.011483727
000040 75 6a 91 3d 55 12 95 bd d7 53 b6 3d 57 69 42 bd
       0.07100383 -0.07278887 0.0890271 -0.04746374
000050 62 73 87 bd 07 3c 10 3d 35 25 25 be bc 6a 04 3e
       -0.066138044 0.035213497 -0.16127475 0.12931341
000060 e0 a1 06 3e 33 08 3c bd bd 52 d5 bc a0 83 0f 3e
       0.13147688 -0.045906257 -0.02604043 0.14015055
000070 8e d6 3b 3d 68 da 0a bd 5b a5 3a 3e 17 e5 ff bd
       0.045858912 -0.033899695 0.1822714 -0.12494867
000080 06 c4 92 be 03 7e ac bd 34 87 99 3d 70 91 25 be
       -0.2866518 -0.08422472 0.07496491 -0.16168761
000090 3a 7d 69 be 87 a7 b3 bd 80 52 30 bd 2c 47 7e be
       -0.22801676 -0.08772188 -0.043047428 -0.24831837
0000a0 9c 36 d4 be a9 20 7d be db 00 c4 be e1 37 63 be
       -0.41447914 -0.2471949 -0.38281903 -0.22189285
0000b0 5c 7d e4 be f2 41 96 be c7 d3 be be 93 22 9e be
       -0.44626892 -0.29347187 -0.37270948 -0.30885753
0000c0 b3 a4 9a be dc 72 4b be 14 3b 9e be 3a 09 78 be
       -0.3020378 -0.19868034 -0.30904448 -0.2422227
0000d0 21 35 90 be e1 f5 9a be 3e 6f a8 3d d4 a5 28 be
       -0.28165534 -0.30265716 0.08224343 -0.16469508
0000e0 a5 ac 52 be 1f 9e 8c be 06 f1 ea be 3b 99 14 bd
       -0.20573671 -0.27464387 -0.4588701 -0.036278944
0000f0 0c f4 85 be 2d 73 d4 bd 90 30 04 be 46 01 78 be
       -0.26162755 -0.103735305 -0.1290915 -0.24219236
000100 eb f9 2c 3e 43 c0 8c bd 79 cc ac 3c b1 99 45 3d
       0.16892211 -0.068726085 0.021093594 0.048242275
000110 a8 b7 50 be be de a8 3d ed f1 17 be f8 1d 77 bd
       -0.2038256 0.0824561 -0.14838381 -0.060331315
000120 5b 59 2b be 8f 3b ec bd 81 f2 f1 bd 6a 35 f4 bd
       -0.16733305 -0.115347974 -0.11813832 -0.119242504
000130 51 3b 0f 3e 30 eb 36 be cf a7 3a 3e 84 9e 4d be
       0.13987471 -0.17863154 0.18228076 -0.2008
000140 33 9a 3e bd 87 e9 38 bd e2 93 26 bd 14 cd 3c 3e
       -0.046533775 -0.045144584 -0.040668376 0.18437606
000150 f3 4d 27 3d 79 4a ee bc 1b 21 32 3d 5a 14 56 bd
       0.040845823 -0.029088246 0.043488603 -0.052265503
000160 2a 85 1e 3d d3 98 14 3e f6 e3 e1 3d f4 10 db 3b
       0.038701214 0.14511423 0.11029808 0.0066853706
000170 0b 72 49 be 3f 7e dd bd 80 23 f8 b9 56 a2 ba bd
       -0.1967241 -0.10815095 -0.00047328696 -0.091129944

fc.weight f4 [1, 32]
000000 87 30 a1 3e ef 72 ed 3d e2 89 0a 3e 1b 4b 1d 3e
       0.31482336 0.115941875 0.1352916 0.15360682
000010 1e 92 a8 3e bb 93 10 3e c1 f5 87 be c1 84 89 be
       0.3292398 0.14118855 -0.26554683 -0.26859096
000020 12 27 47 be e5 ef 48 be 46 1b a1 be b1 0e 83 bd
       -0.19448498 -0.19622763 -0.3146612 -0.063992865
000030 06 cd 97 be bf ef a9 3e 07 bb 83 be 45 53 80 3e
       -0.29648608 0.33190724 -0.25728628 0.2506353
000040 26 31 9e be 61 6f cd be 10 50 bb 3e 66 a2 d3 3e
       -0.30896872 -0.40124038 0.3658452 0.41334838
000050 92 2e 31 3e 72 8b 20 be ce f7 04 3e 76 49 32 be
       0.17302921 -0.15678194 0.12985155 -0.17410836
000060 42 21 6b 3e 42 65 6c be 7b 68 c6 be 51 b9 90 be
       0.22961906 -0.23085502 -0.38751587 -0.28266385
000070 1d 63 0b 3e 0a d2 b7 be 77 08 38 bd 96 6f af be
       0.13612027 -0.35902435 -0.044929948 -0.3426482
