project/best_grusb_model_K6.pth (torch, 21733 bytes, 5 tensors)

gru.weight_ih_l0 f4 [96, 14]
00000000: fab4 2dbe 38d8 cfbc 15a2 7dbd 9830 abbd
00000010: 096c 04bd f808 a43e c115 e2bd 6cb8 8f3d
00000020: 11db 00be 02ff 0ebd 5cf0 b8bd e932 433d
00000030: 8cd2 26ba 2e5a 88be e23e f0be 3048 943e
00000040: 3dc2 3b3e 3b4e b23e 33d3 bf3e b718 2abe
00000050: 3d16 a73e 5a73 1e3d 8b29 bebd 8276 c8be
00000060: 5b86 913d d73b 223e 02a6 123e b60d 85be
00000070: 40b4 d8bd a0f1 1c3e 3cbe 8abd 84a4 1f3e
00000080: 9d1b abbd 1330 053d faf5 debd c2fd a93d
00000090: 6351 1d3e 9b3e 5ebe a6cb 45bd 27a1 ab3d
000000a0: 68b6 163e ecb5 c53c 3522 2bbd 1420 51be
000000b0: d9c4 49be 98e1 183d 5fe9 26be 7cae 283d
000000c0: f19f ecbd d7ba 343e d819 f53d c912 e93d
000000d0: 4e04 e33d 7704 51be 43d2 81bc c84c 9dbd
000000e0: f521 17be 3711 5e3d ccdb 353e e9c5 383e
000000f0: f887 d73e e44c 6dbe 7a94 453e 3746 47bd
00000100: a748 a33d efb4 45be 34fd bdbc b192 dc3d
00000110: 2aba 203e ce9a 66be 11df cd3d d07b 33be
00000120: 1013 2a3d 70dc 19bd a320 6cbe a998 dfbd
00000130: 0535 4fbe 717d 95bc b871 febc abbc 9abd
00000140: dc35 3ebd fbf1 f0bd cb25 ddbb 85a2 73bd
00000150: 0550 02be c18d 35bd 2ca4 a5be 42ba 103e
00000160: ead3 13bd fbfa bd3d 815b 16be e0da 463e
00000170: 74e5 d3bd 551e da3d 387b 56be 36c8 45be
00000180: d247 8c3d b5a4 57be 18aa 13bd 51b5 383c
00000190: 97b5 0c3e 8319 fa3d 541b d13d 3ef5 e4bc
000001a0: 0641 3ebe 92b8 88bd 2eee e0bb 4efb 96bd
000001b0: 6928 f4bd 4089 fc3d fe2a 413e 4ee4 c5bd
000001c0: 82ff eabc e7cf bcbe d1e5 32be c5a0 39be
000001d0: 3bd9 f6bd 821e b13e 185b 97be a266 443e
000001e0: e1b9 4c3b bf78 ad3e ce74 183e 00bf 4ebe
000001f0: 70b0 30b9 6410 c53d da32 86be 18ec 103c
00000200: d489 9abe 645c 65be f080 36be e0ef 753e
00000210: 9c06 89be 78f2 ae3d 31b2 b83d 595d c03c
00000220: 5b8a dfbd 59ae 533d 5768 74bd d027 d5bd
00000230: ac91 a83e 6444 663c c12f 33bc f014 11bd
00000240: e608 863d d8f0 d43d 86ad 9b3c 755b aebd
00000250: 051c 463e 9c7b 7e3e 13f9 2bbe 5623 6d3d
00000260: d5fd 673d cf19 8e3e 6734 b3bd 9362 a9be
00000270: a89f 3d3d 9c30 3b3d 2bfa dbbe 8de2 403e
00000280: 851e b9be 9d37 a13d 0960 1dbe 64a5 f53d
00000290: eabf 79bd d301 99bd 1739 df3d 8c94 34be
000002a0: 17ee 2dbe bf77 26bd 6b7e 01be a9ab 873e
000002b0: 7c6d 653e 4c1b 593d c38f 893e d46c fabd
000002c0: 34bc ad3d 3157 2abc 5b70 d1bd 4415 0b3e
000002d0: 53ec ea3d 22d6 a13b 6403 c8bd 6a83 233e
000002e0: 58b8 1d3d 767b 1c3d e006 153e da60 243d
000002f0: f95c 4cbe bf3a 13be 4ef4 353e 4556 64bd
00000300: 255a 0b3c 005e 2abc f0a0 8a3c 1b40 84be
00000310: 8c4b 79be e14e a0bd 76b7 57be f935 013e
00000320: 5216 ccbd 80f3 513e 713a 88be d368 5f3d
00000330: 07fb fa3d 10ab 51bd aa42 493d e5c1 483e
00000340: 1501 77bd 3298 9dbe 20fb 71be 2a54 613d
00000350: 1f87 1d3e 3d5b 803d 9120 283e 287a e83c
00000360: 097f 1d3e 23ac af3d e4a9 353e 4dce 50be
00000370: 8a0b 79bc ddb3 8a3e 7789 a83a 047d 18be
00000380: fcdb 223e 88b6 76be 87cb 15be 8524 fcbc
00000390: b687 00be 8209 b5bc 60f2 9cbe eb7e 693e
000003a0: 3354 253d 6328 143d d98a cfbd 8e68 80be
000003b0: 44f0 05be 44a7 dabd a0fb f63d 1703 04be
000003c0: 5a3d 9f3c b9ab 31be 3218 9ebd 22bf 5a3e
000003d0: 87e6 49bd 758d 44bc 222b 293e f5ba 6d3e
000003e0: c83b 653d 280e 41be a4cf 853d 89da ef3d
000003f0: e8ca 48be 03b6 2abe d7b6 30be 77c6 73be
-0.16963568 -0.025371656 -0.06192215 -0.08358878 -0.032329593 0.32038093 -0.110393055 0.070175976
-0.12583567 -0.034911163 -0.0903022 0.047655974 -0.00063637714 -0.26631302 -0.46922976 0.28961325
0.18335815 0.3482531 0.3746582 -0.1661099 0.32634154 0.038684227 -0.092852674 -0.39152914
0.071057044 0.1584314 0.1432114 -0.25987023 -0.10581255 0.15326548 -0.067745656 0.15590101
-0.08354876 0.03251655 -0.1088676 0.083003536 0.15363078 -0.2170357 -0.048289917 0.08380347
0.1471802 0.024134599 -0.04178067 -0.20422393 -0.19703998 0.037324518 -0.16299962 0.041182026
-0.11553944 0.17649399 0.1196782 0.11380536 0.110848054 -0.2041186 -0.01584733 -0.076806605
-0.14759047 0.054215636 0.17759627 0.18044247 0.42095923 -0.23173863 0.1929492 -0.048650946
0.07972842 -0.19307302 -0.023192026 0.10770167 0.15696016 -0.22519991 0.10052312 -0.175277
0.041522086 -0.03756374 -0.23059325 -0.109177895 -0.20235069 -0.018248292 -0.031060085 -0.07555517
-0.046438083 -0.11764904 -0.00674889 -0.059481163 -0.12725838 -0.04432464 -0.32351816 0.14133552
-0.03609077 0.09276386 -0.14683343 0.19419432 -0.10346499 0.106503166 -0.20945442 -0.19314656
0.06849636 -0.21058924 -0.036050886 0.011273698 0.13741146 0.12211897 0.102102906 -0.027948972
-0.18579492 -0.06675829 -0.0068643307 -0.07372151 -0.1192177 0.12330866 0.18864056 -0.09662686
-0.028686289 -0.36877367 -0.1747048 -0.18127735 -0.12053152 0.34593588 -0.29561687 0.19179776
0.0031238722 0.33881184 0.14888307 -0.20190048 -0.00016850396 0.09622267 -0.26210672 0.008845352
-0.3018328 -0.22398525 -0.17822623 0.24017286 -0.26762855 0.08542341 0.09018362 0.023482012
-0.10915061 0.051679943 -0.05966982 -0.10407984 0.3292364 0.0140543915 -0.010936678 -0.03542036
0.06544666 0.103975 0.01900364 -0.08513538 0.19346626 0.2485184 -0.16794233 0.057895027
0.056638557 0.27754065 -0.08750229 -0.3308302 0.04629484 0.045700654 -0.429643 0.18836422
-0.36156097 0.078719355 -0.15368666 0.119944364 -0.06097404 -0.07471051 0.10899561 -0.17634791
-0.16985355 -0.040641543 -0.12645881 0.26498154 0.22405046 0.053004548 0.26867494 -0.122277886
0.084831625 -0.010396765 -0.10226508 0.13582331 0.114708565 0.0049388567 -0.09766272 0.15968099
0.038505882 0.03820368 0.14553404 0.040131427 -0.19957341 -0.14377879 0.17768976 -0.055746336
0.008505379 -0.010398388 0.016922444 -0.2583016 -0.24345225 -0.07827545 -0.21066079 0.12618245
-0.09965195 0.20503044 -0.26607087 0.054543328 0.12254911 -0.05118853 0.04913584 0.19605215
-0.060303766 -0.30780178 -0.23630953 0.055011906 0.15383576 0.06267402 0.16418673 0.028378561
0.15380491 0.08577754 0.1774059 -0.20391198 -0.015200505 0.2709035 0.001285835 -0.1489144
0.1590423 -0.24093068 -0.14628421 -0.030779133 -0.1255177 -0.02209926 -0.30653667 0.22802322
0.0403635 0.03617133 -0.10133905 -0.2507977 -0.13079935 -0.10676435 0.120597124 -0.12891804
0.019438434 -0.17350663 -0.07719459 0.21361974 -0.049292114 -0.011996617 0.1652036 0.2321585
0.055965215 -0.18853056 0.06533745 0.11711604 -0.19608653 -0.16670994 -0.17257248 -0.23806177

gru.weight_hh_l0 f4 [96, 32]
00000000: 0f2b e4bd 41f7 f23c 95e6 883d 7a93 90bd
00000010: 9c22 cdbd f12d ef3d 6eb9 c8bd 7de2 a3bd
00000020: a80f 353e 90ce b03d 5106 09bc b9d8 303e
00000030: 0e2a e03d 8ba8 f8bd 600a 70bc a941 e33d
00000040: 7983 d73d 13c9 2fba 0107 1c3d c27c 48be
00000050: 207c 20be 041c 093e 2859 603e b222 0a3d
00000060: c84c 793e afa7 963d 16c9 313e 5e7a afbd
00000070: dbe8 073e 5c88 68bd 0dee 6fbe 44c1 d4bd
00000080: ca33 e8bd 997e 92bd caf9 cd3d 659c 1b3e
00000090: 86d3 f33d 707b 1e3e d7b4 45bc 865a 3b3e
000000a0: c335 c33d e467 43be 83c5 303d bcc3 0e3e
000000b0: 688e 95bd 3111 6ebd d73b e4bc 9e0e 38be
000000c0: d1d8 b13c 1b52 7a3e 4789 e53d 228f 15bc
000000d0: 7081 debd 8ec3 80be bb93 193d 83a7 a73c
000000e0: 5c0f 073c 6478 453e 4147 75bd b4fc 37be
000000f0: dae3 4cbd 3f05 71bd acd5 10be a238 01be
00000100: 18e3 b8bd f58e 0bbe 46b1 91bc 3af5 843d
00000110: 6b18 debd e431 fa3d 454d 69be 57dd c0bd
00000120: 8c43 c7bd 820b 71ba 70fc c33d 3e0e 93bd
00000130: 6f79 29be df16 413b d58b adbd 6ba9 8d3d
00000140: ef31 04bd 49df 2e3d 9e1a 953d 0923 1dbe
00000150: 6676 3cbd 3857 76bd dfc7 0fbd 80fc 90bd
00000160: 0953 2b3e fc3b 16bd 69d0 76bd ff31 013d
00000170: 0265 823e 62e9 2e3c 97bb 17bd 2bbd 1cbe
00000180: 6c2a 62bd 0e5c 39bd 997a cd3d a11e 63bc
00000190: c713 443d 1836 1a3e 3e22 2abe e593 bbbb
000001a0: 4a76 f23d c088 9fbd 9577 b7bd 7a65 2ebe
000001b0: d0ae 40bd 2f1e d1bd ebd3 863d 8eb0 0c3e
000001c0: f1ed 313e 092d 0e3e 7060 e93d f5e3 66be
000001d0: 90f9 253e 7362 953c 1eb5 f73d a0fa e5ba
000001e0: e962 093e 49ba a73b e403 043e f226 d73c
000001f0: 348e 0e3d 2298 8ebd 6ffc 4ebe c661 b23d
00000200: 97bf 1cbe 96ae 09be f54c a13d c7a3 4bbc
00000210: 6a67 123e 0970 863c 70e2 69be 1080 a23c
00000220: 3146 21be f1e4 0abe 1f66 023e 2ef9 ae3c
00000230: 7d9d aebc d21f 96bd 8152 27be 3aaf 42be
00000240: d5df 15bc 2641 803e 6131 0bbe 1ee5 0b3d
00000250: 7edc 71bd bdc2 a9bc c0a5 203d 34c9 433d
00000260: 2762 0dbd bb96 7c3d c94e 823d dab1 c43c
00000270: f4e5 83bd f284 a6bd 14b1 12be 6f76 da3d
00000280: 0f12 003d 8809 2ebd 7c3e 393c 300a 283b
00000290: e6cd b33d ad66 31be c8cb 9d3d af43 1a3e
000002a0: 787e 88bd aa28 333e 6c7a 5abd 5bfa 34be
000002b0: e2bb 613d cf8b edbd 4b42 523d d446 383d
000002c0: 512e 92bd 11b5 f23c 9ba5 273e 768b 0a3d
000002d0: 32bc 123e 17ce 533e b3fc ef3d 8187 f33d
000002e0: cf0a e83d 0144 18be b6dd f7bc c192 dabd
000002f0: 0c65 483d c857 d23d 99f0 0bbd baca b7ba
00000300: a0cf 1dbe 0333 ebbc a684 c03d bd59 06be
00000310: fd93 fdbd 1396 443c 368b 2f3e 3a17 aa3d
00000320: 7d90 413e 4f6a c4bd a807 8bbc 439a 42bd
00000330: d02c 02be a8bb 2dbd 897d 5abd f93d 203e
00000340: 28c8 ef3d 0f2a 08be bb64 373e 6e6a 123c
00000350: e23e 16be d995 653e e980 0b3e e5eb 083e
00000360: a0b6 48bd 2e1c 203e 68a4 61bd 3293 7d3e
00000370: 850a a03d 14fd 3b3d c183 3c3d 6b01 b53d
00000380: 9f27 18be 0698 be3d 0016 6d3d e5fd afbd
00000390: 66cb 93bc 1552 c3bd be29 13bd 3a5f 0e3c
000003a0: 9b2d 93bc 6b43 dfbd fe26 623e 53cc 71bd
000003b0: cd70 e2bd e52d 81be 7b5e 943d 649f 40be
000003c0: f55f 953e 8e07 19bd 16b7 1cbd 7ac3 a9bd
000003d0: 958c 893d 7012 8e3d af44 8f3e 3607 4c3d
000003e0: e030 d73d 8007 d73d 1fab 1abe 1275 d6bc
000003f0: 7cad 203e 08c6 8abe 1b27 65be 2257 35bd
-0.11141025 0.029658915 0.06684605 -0.07059379 -0.10016367 0.116786845 -0.09800993 -0.080021836
0.17681754 0.08633149 -0.008363322 0.17270173 0.10945521 -0.12141522 -0.014650911 0.11096508
0.10523123 -0.00067056826 0.038092617 -0.19578841 -0.1567235 0.13389593 0.2190901 0.033724494
0.24345696 0.07356202 0.17361864 -0.085682616 0.13272421 -0.056770667 -0.23430653 -0.10388425
-0.11338003 -0.07153053 0.10057409 0.15196379 0.11905579 0.15476775 -0.012067041 0.1829625
0.095317386 -0.190826 0.04315711 0.13941854 -0.073025525 -0.058121864 -0.027860565 -0.17974326
0.021709831 0.24445383 0.11207824 -0.009128364 -0.10864532 -0.25149196 0.037494402 0.020465618
0.008243408 0.19284207 -0.059882406 -0.17967492 -0.050021984 -0.058842894 -0.1414401 -0.1261926
-0.0902769 -0.13628753 -0.017784726 0.06492086 -0.10844501 0.12216547 -0.22783382 -0.09417217
-0.097296804 -0.0009195135 0.09569633 -0.07180451 -0.1655023 0.0029463095 -0.084739365 0.069170795
-0.032274183 0.04269341 0.072804675 -0.15345396 -0.04601135 -0.060141772 -0.03510272 -0.070794106
0.16730894 -0.0366783 -0.06025735 0.03154182 0.25467688 0.01067576 -0.037044134 -0.15306537
-0.055216238 -0.045253806 0.10033149 -0.013862283 0.047870424 0.15059698 -0.16614625 -0.0057244175
0.11838968 -0.07789755 -0.08958355 -0.17030898 -0.047041714 -0.10210835 0.06583389 0.13739225
0.17375924 0.13884367 0.11395347 -0.22547896 0.16208482 0.01823542 0.12095092 -0.0017546006
0.13416637 0.0051186425 0.12892109 0.026263688 0.034803584 -0.06962611 -0.20213483 0.08710055
-0.1530746 -0.13445505 0.078760065 -0.012429184 0.14297262 0.016410844 -0.22840285 0.019836456
-0.15749432 -0.13563897 0.12734269 0.021359053 -0.02131533 -0.07330288 -0.16340066 -0.19012156
-0.009147604 0.25049704 -0.13593055 0.03415405 -0.05904817 -0.020722741 0.03922057 0.047799304
-0.034517433 0.061667185 0.06362683 0.024010587 -0.064403445 -0.08130826 -0.14325362 0.10667121
0.031267222 -0.04248956 0.011306401 0.0025640838 0.087795064 -0.17324324 0.07704884 0.15064882
-0.06664747 0.17495981 -0.053339407 -0.17673628 0.05511082 -0.11598932 0.051332753 0.044989422
-0.071377404 0.029627355 0.16371767 0.033824407 0.14329603 0.20684086 0.117181204 0.1189108
0.113301866 -0.14869691 -0.030257087 -0.10672522 0.04892449 0.10270649 -0.034165 -0.0014022209
-0.15411234 -0.028710848 0.09400301 -0.1312017 -0.12381742 0.011998671 0.17142949 0.08305211
0.18902774 -0.09590589 -0.016971424 -0.047510397 -0.12712407 -0.04241529 -0.053342376 0.1564864
0.11708099 -0.13297294 0.1790952 0.008936508 -0.14672425 0.22420444 0.13623394 0.13371237
-0.04900229 0.1563575 -0.05508843 0.24763182 0.078145064 0.04589565 0.046024088 0.08838161
-0.14858864 0.0930634 0.05788231 -0.085933484 -0.018041324 -0.0953714 -0.03592848 0.008689696
-0.017966082 -0.10901531 0.22085187 -0.05903275 -0.11056671 -0.25230327 0.07244583 -0.18810803
0.29174772 -0.03736072 -0.03826054 -0.08289237 0.06716267 0.069371104 0.2798209 0.049811564
0.10507369 0.104994774 -0.1510434 -0.02617887 0.15691179 -0.2710421 -0.22378199 -0.04427255

gru.bias_ih_l0 f4 [96]
00000000: 5c95 273d d518 8a3d b94d 703e 6c59 fc3d
00000010: 80d9 c83d 6026 12be c617 20be 07fa 333e
00000020: 8ed8 0a3d 3530 9e3d 2254 913c 33bb e93d
00000030: 59bf 70bd 62b4 263e d9df 06bc acd6 b93d
00000040: 9117 20be 18a9 c6bd e6d6 3abe 1fe0 bf3d
00000050: 9e5f e2bd 3b11 ce3d c414 1abe 7f46 263d
00000060: 3de2 b23d 705d 8dbd c702 aebd 1e6a 26bd
00000070: b7c1 11be 6fc0 363e 69d2 0d3d 5b0c f93d
00000080: 79d8 acbe 7ed5 abbd 8bbc a8bd 8ccb 8dbe
00000090: 1049 99bd a009 d83d 8fdd 3cbe 8040 1bbd
000000a0: 8ea9 bb3d 0b5a aebe a2b0 c43c 4bbf 96bd
000000b0: be3c 50be 5e6b 87bd 500b 56be e3f3 49be
000000c0: fe0c 99be bdfc 74be b8eb 20be ed71 8fbe
000000d0: aab8 2fbe ae53 a1be 5586 56be 286a 42be
000000e0: 4958 9ebe 7381 9dbe 3310 f2bd a0b4 31bd
000000f0: e2a8 4fbe b57c 1ebd 0bd4 e4bd 8b0a 923d
00000100: 44e9 06be b3b4 393d 66a2 99bd 6243 f83c
00000110: 29e0 04be fad4 203e b2ca 31be 18f5 d2bd
00000120: 648a 40be 7af9 86bd a00c b9bc c8b4 db3d
00000130: 8b0e 88bd b6c6 30be 94e4 ddbd a94f 62bd
00000140: d970 fa3d 55d3 483e ab91 9fbd e092 c03d
00000150: a0d2 e83d 9be3 6ebd 009c 5b3e 3cb2 8d3d
00000160: be9d b53d 9f57 4fbe 5b22 dd3d ced6 51be
00000170: d4e8 5a3e 38f7 2dbd ec9c 293d 7a89 023e
0.040913925 0.067430176 0.23467149 0.12321743 0.0980711 -0.14272451 -0.15634069 0.17575847
0.03389793 0.077240385 0.017740313 0.114126585 -0.058776233 0.16279748 -0.00823208 0.090741485
-0.1563399 -0.09700221 -0.1824604 0.093689196 -0.11053394 0.1006188 -0.15046984 0.040594574
0.08734558 -0.069025874 -0.084966235 -0.040628545 -0.14234053 0.17846845 0.03462449 0.1216056
-0.33758906 -0.0839033 -0.08239087 -0.27694356 -0.07484639 0.10548711 -0.18443893 -0.03790331
0.09163199 -0.34053072 0.024010006 -0.07360705 -0.20335671 -0.066122755 -0.20902753 -0.19721942
-0.29892725 -0.23924537 -0.1571492 -0.28016606 -0.17160287 -0.31509155 -0.20949681 -0.18985808
-0.3092673 -0.30762824 -0.11819496 -0.043385148 -0.20279267 -0.03869315 -0.111732565 0.07130917
-0.13174921 0.045338344 -0.07501678 0.030305568 -0.12976135 0.15706244 -0.17362478 -0.10300654
-0.18802792 -0.06590553 -0.022589028 0.10727841 -0.06643399 -0.17263302 -0.108346134 -0.05525175
0.12228555 0.19611867 -0.07791456 0.09403014 0.113682985 -0.05832253 0.21446228 0.06918761
0.088679776 -0.20248269 0.107975684 -0.20492098 0.2137788 -0.042472094 0.041409418 0.12747756

gru.bias_hh_l0 f4 [96]
00000000: 00c0 2abe 5753 d13c a1f3 07bd cb38 323e
00000010: b318 0f3e 655a 213e b348 71be fdbe 813c
00000020: 053a a8bd 4ed9 09be 9424 823c cb89 5fbd
00000030: 80f9 d83d e6f9 023e 74de 553e 1459 80bd
00000040: 0960 103d 2ebd fbbd e8cc b0bc 88bc ddbd
00000050: 658b 8abe fdd9 c13d c2be 69bd 4f08 c03d
00000060: ab5e abbd 9dd6 d6bd 233c 833d e261 963b
00000070: 1e5b 76bd 6010 403d c949 e83c c089 753d
00000080: abd7 19be 03e6 db3d eeff c6bc dd4f 97be
00000090: 918f d2be 7c80 4fbd c2cc 3b3d 623a 9bbd
000000a0: 4fe4 31be 1668 58be 69b0 273d 0d8c a0be
000000b0: 9780 6dbd d5a0 83be 5301 61be 1e84 60be
000000c0: 928f 7cbd fe7c eebe 605e 0ebe 3d20 fcbd
000000d0: 73f8 73bc fc15 a6be fa36 66be 8df9 e4bd
000000e0: 8694 dbbe 7f79 75be 8c58 ad3d 662b 0ebe
000000f0: dd68 2b3d df8e 3bbd 8257 05be 1f92 d8bd
00000100: 7eb3 e73d c920 6abe 398f e4bd 2574 c5bc
00000110: 49ea 3e3e d066 0bbe d974 d73d 0019 b23d
00000120: f518 1fbe c0a1 74bd dd21 1ebd 7803 41bd
00000130: ec5b ba3d e7f5 aebd dbf5 18be 7007 3ebe
00000140: 8b54 5fbd 70b5 d5bc 6012 cf3b 9d0e 23be
00000150: ad66 713c 69e5 afbd ed5a c6bd efb2 f9bd
00000160: 2afd 9dbd 1645 323e d67d f7bd 74c5 48be
00000170: 4c10 cebd bf54 a4bd ef93 65be 84af b53b
-0.16674805 0.025552435 -0.033191327 0.17404477 0.13974266 0.15757139 -0.23562889 0.01583814
-0.08214191 -0.13461801 0.015886582 -0.05457477 0.10594463 0.12790641 0.2088564 -0.0626699
0.035247836 -0.122919425 -0.021582082 -0.10826975 -0.27059475 0.09465406 -0.057066686 0.09376585
-0.08367666 -0.10490153 0.064079545 0.0045893053 -0.06014549 0.046890616 0.028355496 0.05994582
-0.15023677 0.10737231 -0.024291959 -0.29553118 -0.41125157 -0.05065964 0.04584957 -0.07579495
-0.17372249 -0.21133456 0.040939722 -0.3135685 -0.05798396 -0.25708643 -0.21973161 -0.21925399
-0.061660357 -0.46579736 -0.13903189 -0.123108365 -0.014890778 -0.32438648 -0.2248191 -0.111804105
-0.42886752 -0.23972128 0.084641546 -0.13883743 0.041848052 -0.04579055 -0.13021663 -0.105747454
0.11313532 -0.22864069 -0.1116013 -0.024103234 0.1864406 -0.13613439 0.10520334 0.086961746
-0.15536864 -0.05972457 -0.038606513 -0.04712245 0.09099564 -0.08542996 -0.14937536 -0.18557525
-0.054523986 -0.026087493 0.006319329 -0.15923543 0.0147339525 -0.085886784 -0.096853115 -0.12192332
-0.07714303 0.17409167 -0.12084548 -0.19606572 -0.10061702 -0.080239765 -0.22419713 0.0055446047

fc.weight f4 [1, 32]
00000000: 2aeb a93e a68f 2d3e 9282 7c3e d956 a9be
00000010: afc0 a5be e96c 043c 1b4e 953e 1e2c 17be
00000020: 8420 4abd 0574 b13e b50e c1bc 19f0 7ebe
00000030: 38d6 3ebe b323 533e 09b9 d73e fe62 b43e
00000040: 7f7f 77be 346c c2be f851 65be 528d 7c3e
00000050: b416 a3bd 7a70 c9be abf0 80be 9c72 36be
00000060: a4d7 93be 6e52 613e 23d3 bebd 885f 8c3d
00000070: 782d 7abe b8c5 ccbd 6f0e b43e 5a7c 7f3c
0.33187228 0.16949329 0.24659184 -0.33074072 -0.32373568 0.008082607 0.29161152 -0.14762923
-0.049347416 0.34658828 -0.023566583 -0.24896277 -0.18636405 0.20619087 0.42133358 0.35231775
-0.2416973 -0.37973177 -0.2239455 0.24663284 -0.07963315 -0.39343625 -0.25183615 -0.17817158
-0.28875458 0.220041 -0.09317615 0.06854159 -0.24431407 -0.09998649 0.35167262 0.015593613
